…
  transform_param {
    mirror: true
    mean_value: 100.981
    mean_value: 96.092
    mean_value: 109.802
    scale_factors: 0.5
    scale_factors: 0.75
    scale_factors: 1
    scale_factors: 1.25
    scale_factors: 1.5
    scale_factors: 1.75
    scale_factors: 2
    crop_width: 512
    crop_height: 512
  }
  image_data_param {
    source: "/home/user/chao/ICNet-tensorflow-master/list/train_list.txt"
    batch_size: 5
    shuffle: true
    is_color: true
    root_folder: "/home/user/chao/deeplab/datasets/cityscapes/shuju/"
    label_type: PIXEL
  }
}
layer {
  name: "data_sub1"
  type: "Scale"
  bottom: "data"
  top: "data_sub1"
}
layer {
  name: "conv1"
  type: "Convolution"
  bottom: "data_sub1"
  top: "conv1"
  param {
    lr_mult: 1
    decay_mult: 1
  }
  convolution_param {
    num_output: 32
    bias_term: true
    pad: 1
    kernel_size: 3
    stride: 1
    weight_filler {
      type: "msra"
    }
  }
}
layer {
  name: "Block1_bn1"
  type: "BN"
  bottom: "conv1"
  top: "Block1_bn1"
  param {
    lr_mult: 1
    decay_mult: 0
  }
  param {
    lr_mult: 1
    decay_mult: 0
  }
  param {
    lr_mult: 0
    decay_mult: 0
  }
  param {
    lr_mult: 0
    decay_mult: 0
  }
  bn_param {
    slope_filler {
      type: "constant"
      value: 1
    }
    bias_filler {
      type: "constant"
      value: 0
    }
    momentum: 0.95
    frozen: false
  }
}
layer {
  name: "Block1_relu1"
  type: "ReLU"
  bottom: "Block1_bn1"
  top: "Block1_bn1"
}
layer {
  name: "Block1_conv1"
  type: "Convolution"
  bottom: "Block1_bn1"
  top: "Block1_conv1"
  param {
    lr_mult: 1
    decay_mult: 1
  }
  convolution_param {
    num_output: 6
    bias_term: true
    pad: 1
    kernel_size: 3
    stride: 1
    weight_filler {
      type: "msra"
    }
  }
}
layer {
  name: "Block1_bn2"
  type: "BN"
  bottom: "Block1_conv1"
  top: "Block1_bn2"
  param {
    lr_mult: 1
    decay_mult: 0
  }
  param {
    lr_mult: 1
    decay_mult: 0
  }
  param {
    lr_mult: 0
    decay_mult: 0
  }
  param {
    lr_mult: 0
    decay_mult: 0
  }
  bn_param {
    slope_filler {
      type: "constant"
      value: 1
    }
    bias_filler {
      type: "constant"
      value: 0
    }
    momentum: 0.95
    frozen: false
  }
}
layer {
  name: "Block1_relu2"
  type: "ReLU"
  bottom: "Block1_bn2"
  top: "Block1_bn2"
}
layer {
  name: "Block1_conv2"
  type: "Convolution"
  bottom: "Block1_bn2"
  top: "Block1_conv2"
  param {
    lr_mult: 1
    decay_mult: 1
  }
  convolution_param {
    num_output: 6
    bias_term: true
    pad: 1
    kernel_size: 3
    stride: 1
    weight_filler {
      type: "msra"
    }
  }
}
layer {
  name: "Block1_cat1"
  type: "Concat"
  bottom: "Block1_conv1"
  bottom: "Block1_conv2"
  top: "Block1_cat1"
}
layer {
  name: "Block1_bn3"
  type: "BN"
  bottom: "Block1_cat1"
  top: "Block1_bn3"
  param {
    lr_mult: 1
    decay_mult: 0
  }
  param {
    lr_mult: 1
    decay_mult: 0
  }
  param {
    lr_mult: 0
    decay_mult: 0
  }
  param {
    lr_mult: 0
    decay_mult: 0
  }
  bn_param {
    slope_filler {
      type: "constant"
      value: 1
    }
    bias_filler {
      type: "constant"
      value: 0
    }
    momentum: 0.95
    frozen: false
  }
}
layer {
  name: "Block1_relu3"
  type: "ReLU"
  bottom: "Block1_bn3"
  top: "Block1_bn3"
}
layer {
  name: "Block1_conv3"
  type: "Convolution"
  bottom: "Block1_bn3"
  top: "Block1_conv3"
  param {
    lr_mult: 1
    decay_mult: 1
  }
  convolution_param {
    num_output: 6
    bias_term: true
    pad: 1
    kernel_size: 3
    stride: 1
    weight_filler {
      type: "msra"
    }
  }
}
layer {
  name: "Block1_cat2"
  type: "Concat"
  bottom: "Block1_conv1"
  bottom: "Block1_conv2"
  bottom: "Block1_conv3"
  top: "Block1_cat2"
}
layer {
  name: "Block1_bn4"
  type: "BN"
  bottom: "Block1_cat2"
  top: "Block1_bn4"
  param {
    lr_mult: 1
    decay_mult: 0
  }
  param {
    lr_mult: 1
    decay_mult: 0
  }
  param {
    lr_mult: 0
    decay_mult: 0
  }
  param {
    lr_mult: 0
    decay_mult: 0
  }
  bn_param {
    slope_filler {
      type: "constant"
      value: 1
    }
    bias_filler {
      type: "constant"
      value: 0
    }
    momentum: 0.95
    frozen: false
  }
}
layer {
  name: "Block1_relu4"
  type: "ReLU"
  bottom: "Block1_bn4"
  top: "Block1_bn4"
}
layer {
  name: "Block1_conv4"
  type: "Convolution"
  bottom: "Block1_bn4"
  top: "Block1_conv4"
  param {
    lr_mult: 1
    decay_mult: 1
  }
  convolution_param {
    num_output: 6
    bias_term: true
    pad: 1
    kernel_size: 3
    stride: 1
    weight_filler {
      type: "msra"
    }
  }
}
layer {
  name: "Block1_cat3"
  type: "Concat"
  bottom: "Block1_conv1"
  bottom: "Block1_conv2"
  bottom: "Block1_conv3"
  bottom: "Block1_conv4"
  top: "Block1_cat3"
}
layer {
  name: "Block1_bn5"
  type: "BN"
  bottom: "Block1_cat3"
  top: "Block1_bn5"
  param {
    lr_mult: 1
    decay_mult: 0
  }
  param {
    lr_mult: 1
    decay_mult: 0
  }
  param {
    lr_mult: 0
    decay_mult: 0
  }
  param {
    lr_mult: 0
    decay_mult: 0
  }
  bn_param {
    slope_filler {
      type: "constant"
      value: 1
    }
    bias_filler {
      type: "constant"
      value: 0
    }
    momentum: 0.95
    frozen: false
  }
}
layer {
  name: "Block1_relu5"
  type: "ReLU"
  bottom: "Block1_bn5"
  top: "Block1_bn5"
}
layer {
  name: "Block1_conv5"
  type: "Convolution"
  bottom: "Block1_bn5"
  top: "Block1_conv5"
  param {
    lr_mult: 1
    decay_mult: 1
  }
  convolution_param {
    num_output: 6
    bias_term: true
    pad: 1
    kernel_size: 3
    stride: 1
    weight_filler {
      type: "msra"
    }
  }
}
layer {
  name: "Block1_cat4"
  type: "Concat"
  bottom: "Block1_conv1"
  bottom: "Block1_conv2"
  bottom: "Block1_conv3"
  bottom: "Block1_conv4"
  bottom: "Block1_conv5"
  top: "Block1_cat4"
}
layer {
  name: "transition1_bn1"
  type: "BN"
  bottom: "Block1_cat4"
  top: "transition1_bn1"
  param {
    lr_mult: 1
    decay_mult: 0
  }
  param {
    lr_mult: 1
    decay_mult: 0
  }
  param {
    lr_mult: 0
    decay_mult: 0
  }
  param {
    lr_mult: 0
    decay_mult: 0
  }
  bn_param {
    slope_filler {
      type: "constant"
      value: 1
    }
    bias_filler {
      type: "constant"
      value: 0
    }
    momentum: 0.95
    frozen: false
  }
}
layer {
  name: "transition1_conv1"
  type: "Convolution"
  bottom: "transition1_bn1"
  top: "transition1_conv1"
  param {
    lr_mult: 1
    decay_mult: 1
  }
  convolution_param {
    num_output: 128
    bias_term: true
    pad: 0
    kernel_size: 1
    stride: 1
    weight_filler {
      type: "msra"
    }
  }
}
layer {
  name: "transition1_average"
  type: "Pooling"
  bottom: "transition1_conv1"
  top: "transition1_average"
  pooling_param {
    pool: MAX
    kernel_size: 2
    stride: 2
  }
}
layer {
  name: "Block2_bn1"
  type: "BN"
  bottom: "transition1_average"
  top: "Block2_bn1"
  param {
    lr_mult: 1
    decay_mult: 0
  }
  param {
    lr_mult: 1
    decay_mult: 0
  }
  param {
    lr_mult: 0
    decay_mult: 0
  }
  param {
    lr_mult: 0
    decay_mult: 0
  }
  bn_param {
    slope_filler {
      type: "constant"
      value: 1
    }
    bias_filler {
      type: "constant"
      value: 0
    }
    momentum: 0.95
    frozen: false
  }
}
layer {
  name: "Block2_relu1"
  type: "ReLU"
  bottom: "Block2_bn1"
  top: "Block2_bn1"
}
layer {
  name: "Block2_conv1"
  type: "Convolution"
  bottom: "Block2_bn1"
  top: "Block2_conv1"
  param {
    lr_mult: 1
    decay_mult: 1
  }
  convolution_param {
    num_output: 6
    bias_term: true
    pad: 1
    kernel_size: 3
    stride: 1
    weight_filler {
      type: "msra"
    }
  }
}
layer {
  name: "Block2_bn2"
  type: "BN"
  bottom: "Block2_conv1"
  top: "Block2_bn2"
  param {
    lr_mult: 1
    decay_mult: 0
  }
  param {
    lr_mult: 1
    decay_mult: 0
  }
  param {
    lr_mult: 0
    decay_mult: 0
  }
  param {
    lr_mult: 0
    decay_mult: 0
  }
  bn_param {
    slope_filler {
      type: "constant"
      value: 1
    }
    bias_filler {
      type: "constant"
      value: 0
    }
    momentum: 0.95
    frozen: false
  }
}
layer {
  name: "Block2_relu2"
  type: "ReLU"
  bottom: "Block2_bn2"
  top: "Block2_bn2"
}
layer {
  name: "Block2_conv2"
  type: "Convolution"
  bottom: "Block2_bn2"
  top: "Block2_conv2"
  param {
    lr_mult: 1
    decay_mult: 1
  }
  convolution_param {
    num_output: 6
    bias_term: true
    pad: 1
    kernel_size: 3
    stride: 1
    weight_filler {
      type: "msra"
    }
  }
}
layer {
  name: "Block2_cat1"
  type: "Concat"
  bottom: "Block2_conv1"
  bottom: "Block2_conv2"
  top: "Block2_cat1"
}
layer {
  name: "Block2_bn3"
  type: "BN"
  bottom: "Block2_cat1"
  top: "Block2_bn3"
  param {
    lr_mult: 1
    decay_mult: 0
  }
  param {
    lr_mult: 1
    decay_mult: 0
  }
  param {
    lr_mult: 0
    decay_mult: 0
  }
  param {
    lr_mult: 0
    decay_mult: 0
  }
  bn_param {
    slope_filler {
      type: "constant"
      value: 1
    }
    bias_filler {
      type: "constant"
      value: 0
    }
    momentum: 0.95
    frozen: false
  }
}
layer {
  name: "Block2_relu3"
  type: "ReLU"
  bottom: "Block2_bn3"
  top: "Block2_bn3"
}
layer {
  name: "Block2_conv3"
  type: "Convolution"
  bottom: "Block2_bn3"
  top: "Block2_conv3"
  param {
    lr_mult: 1
    decay_mult: 1
  }
  convolution_param {
    num_output: 6
    bias_term: true
    pad: 1
    kernel_size: 3
    stride: 1
    weight_filler {
      type: "msra"
    }
  }
}
layer {
  name: "Block2_cat2"
  type: "Concat"
  bottom: "Block2_conv1"
  bottom: "Block2_conv2"
  bottom: "Block2_conv3"
  top: "Block2_cat2"
}
layer {
  name: "Block2_bn4"
  type: "BN"
  bottom: "Block2_cat2"
  top: "Block2_bn4"
  param {
    lr_mult: 1
    decay_mult: 0
  }
  param {
    lr_mult: 1
    decay_mult: 0
  }
  param {
    lr_mult: 0
    decay_mult: 0
  }
  param {
    lr_mult: 0
    decay_mult: 0
  }
  bn_param {
    slope_filler {
      type: "constant"
      value: 1
    }
    bias_filler {
      type: "constant"
      value: 0
    }
    momentum: 0.95
    frozen: false
  }
}
layer {
  name: "Block2_relu4"
  type: "ReLU"
  bottom: "Block2_bn4"
  top: "Block2_bn4"
}
layer {
  name: "Block2_conv4"
  type: "Convolution"
  bottom: "Block2_bn4"
  top: "Block2_conv4"
  param {
    lr_mult: 1
    decay_mult: 1
  }
  convolution_param {
    num_output: 6
    bias_term: true
    pad: 1
    kernel_size: 3
    stride: 1
    weight_filler {
      type: "msra"
    }
  }
}
layer {
  name: "Block2_cat3"
  type: "Concat"
  bottom: "Block2_conv1"
  bottom: "Block2_conv2"
  bottom: "Block2_conv3"
  bottom: "Block2_conv4"
  top: "Block2_cat3"
}
layer {
  name: "Block2_bn5"
  type: "BN"
  bottom: "Block2_cat3"
  top: "Block2_bn5"
  param {
    lr_mult: 1
    decay_mult: 0
  }
  param {
    lr_mult: 1
    decay_mult: 0
  }
  param {
    lr_mult: 0
    decay_mult: 0
  }
  param {
    lr_mult: 0
    decay_mult: 0
  }
  bn_param {
    slope_filler {
      type: "constant"
      value: 1
    }
    bias_filler {
      type: "constant"
      value: 0
    }
    momentum: 0.95
    frozen: false
  }
}
layer {
  name: "Block2_relu5"
  type: "ReLU"
  bottom: "Block2_bn5"
  top: "Block2_bn5"
}
layer {
  name: "Block2_conv5"
  type: "Convolution"
  bottom: "Block2_bn5"
  top: "Block2_conv5"
  param {
    lr_mult: 1
    decay_mult: 1
  }
  convolution_param {
    num_output: 6
    bias_term: true
    pad: 1
    kernel_size: 3
    stride: 1
    weight_filler {
      type: "msra"
    }
  }
}
layer {
  name: "Block2_cat4"
  type: "Concat"
  bottom: "Block2_conv1"
  bottom: "Block2_conv2"
  bottom: "Block2_conv3"
  bottom: "Block2_conv4"
  bottom: "Block2_conv5"
  top: "Block2_cat4"
}
layer {
  name: "transition2_bn1"
  type: "BN"
  bottom: "Block2_cat4"
  top: "transition2_bn1"
  param {
    lr_mult: 1
    decay_mult: 0
  }
  param {
    lr_mult: 1
    decay_mult: 0
  }
  param {
    lr_mult: 0
    decay_mult: 0
  }
  param {
    lr_mult: 0
    decay_mult: 0
  }
  bn_param {
    slope_filler {
      type: "constant"
      value: 1
    }
    bias_filler {
      type: "constant"
      value: 0
    }
    momentum: 0.95
    frozen: false
  }
}
layer {
  name: "transition2_conv1"
  type: "Convolution"
  bottom: "transition2_bn1"
  top: "transition2_conv1"
  param {
    lr_mult: 1
    decay_mult: 1
  }
  convolution_param {
    num_output: 128
    bias_term: true
    pad: 0
    kernel_size: 1
    stride: 1
    weight_filler {
      type: "msra"
    }
  }
}
layer {
  name: "transition2_average"
  type: "Pooling"
  bottom: "transition2_conv1"
  top: "transition2_average"
  pooling_param {
    pool: MAX
    kernel_size: 2
    stride: 2
  }
}
layer {
  name: "Block3_bn1"
  type: "BN"
  bottom: "transition2_average"
  top: "Block3_bn1"
  param {
    lr_mult: 1
    decay_mult: 0
  }
  param {
    lr_mult: 1
    decay_mult: 0
  }
  param {
    lr_mult: 0
    decay_mult: 0
  }
  param {
    lr_mult: 0
    decay_mult: 0
  }
  bn_param {
    slope_filler {
      type: "constant"
      value: 1
    }
    bias_filler {
      type: "constant"
      value: 0
    }
    momentum: 0.95
    frozen: false
  }
}
layer {
  name: "Block3_relu1"
  type: "ReLU"
  bottom: "Block3_bn1"
  top: "Block3_bn1"
}
layer {
  name: "Block3_conv1"
  type: "Convolution"
  bottom: "Block3_bn1"
  top: "Block3_conv1"
  param {
    lr_mult: 1
    decay_mult: 1
  }
  convolution_param {
    num_output: 12
    bias_term: true
    pad: 1
    kernel_size: 3
    stride: 1
    weight_filler {
      type: "msra"
    }
  }
}
layer {
  name: "Block3_bn2"
  type: "BN"
  bottom: "Block3_conv1"
  top: "Block3_bn2"
  param {
    lr_mult: 1
    decay_mult: 0
  }
  param {
    lr_mult: 1
    decay_mult: 0
  }
  param {
    lr_mult: 0
    decay_mult: 0
  }
  param {
    lr_mult: 0
    decay_mult: 0
  }
  bn_param {
    slope_filler {
      type: "constant"
      value: 1
    }
    bias_filler {
      type: "constant"
      value: 0
    }
    momentum: 0.95
    frozen: false
  }
}
layer {
  name: "Block3_relu2"
  type: "ReLU"
  bottom: "Block3_bn2"
  top: "Block3_bn2"
}
layer {
  name: "Block3_conv2"
  type: "Convolution"
  bottom: "Block3_bn2"
  top: "Block3_conv2"
  param {
    lr_mult: 1
    decay_mult: 1
  }
  convolution_param {
    num_output: 12
    bias_term: true
    pad: 1
    kernel_size: 3
    stride: 1
    weight_filler {
      type: "msra"
    }
  }
}
layer {
  name: "Block3_cat1"
  type: "Concat"
  bottom: "Block3_conv1"
  bottom: "Block3_conv2"
  top: "Block3_cat1"
}
layer {
  name: "Block3_bn3"
  type: "BN"
  bottom: "Block3_cat1"
  top: "Block3_bn3"
  param {
    lr_mult: 1
    decay_mult: 0
  }
  param {
    lr_mult: 1
    decay_mult: 0
  }
  param {
    lr_mult: 0
    decay_mult: 0
  }
  param {
    lr_mult: 0
    decay_mult: 0
  }
  bn_param {
    slope_filler {
      type: "constant"
      value: 1
    }
    bias_filler {
      type: "constant"
      value: 0
    }
    momentum: 0.95
    frozen: false
  }
}
layer {
  name: "Block3_relu3"
  type: "ReLU"
  bottom: "Block3_bn3"
  top: "Block3_bn3"
}
layer {
  name: "Block3_conv3"
  type: "Convolution"
  bottom: "Block3_bn3"
  top: "Block3_conv3"
  param {
    lr_mult: 1
    decay_mult: 1
  }
  convolution_param {
    num_output: 12
    bias_term: true
    pad: 1
    kernel_size: 3
    stride: 1
    weight_filler {
      type: "msra"
    }
  }
}
layer {
  name: "Block3_cat2"
  type: "Concat"
  bottom: "Block3_conv1"
  bottom: "Block3_conv2"
  bottom: "Block3_conv3"
  top: "Block3_cat2"
}
layer {
  name: "Block3_bn4"
  type: "BN"
  bottom: "Block3_cat2"
  top: "Block3_bn4"
  param {
    lr_mult: 1
    decay_mult: 0
  }
  param {
    lr_mult: 1
    decay_mult: 0
  }
  param {
    lr_mult: 0
    decay_mult: 0
  }
  param {
    lr_mult: 0
    decay_mult: 0
  }
  bn_param {
    slope_filler {
      type: "constant"
      value: 1
    }
    bias_filler {
      type: "constant"
      value: 0
    }
    momentum: 0.95
    frozen: false
  }
}
layer {
  name: "Block3_relu4"
  type: "ReLU"
  bottom: "Block3_bn4"
  top: "Block3_bn4"
}
layer {
  name: "Block3_conv4"
  type: "Convolution"
  bottom: "Block3_bn4"
  top: "Block3_conv4"
  param {
    lr_mult: 1
    decay_mult: 1
  }
  convolution_param {
    num_output: 12
    bias_term: true
    pad: 1
    kernel_size: 3
    stride: 1
    weight_filler {
      type: "msra"
    }
  }
}
layer {
  name: "Block3_cat3"
  type: "Concat"
  bottom: "Block3_conv1"
  bottom: "Block3_conv2"
  bottom: "Block3_conv3"
  bottom: "Block3_conv4"
  top: "Block3_cat3"
}
layer {
  name: "Block3_bn5"
  type: "BN"
  bottom: "Block3_cat3"
  top: "Block3_bn5"
  param {
    lr_mult: 1
    decay_mult: 0
  }
  param {
    lr_mult: 1
    decay_mult: 0
  }
  param {
    lr_mult: 0
    decay_mult: 0
  }
  param {
    lr_mult: 0
    decay_mult: 0
  }
  bn_param {
    slope_filler {
      type: "constant"
      value: 1
    }
    bias_filler {
      type: "constant"
      value: 0
    }
    momentum: 0.95
    frozen: false
  }
}
layer {
  name: "Block3_relu5"
  type: "ReLU"
  bottom: "Block3_bn5"
  top: "Block3_bn5"
}
layer {
  name: "Block3_conv5"
  type: "Convolution"
  bottom: "Block3_bn5"
  top: "Block3_conv5"
  param {
    lr_mult: 1
    decay_mult: 1
  }
  convolution_param {
    num_output: 12
    bias_term: true
    pad: 1
    kernel_size: 3
    stride: 1
    weight_filler {
      type: "msra"
    }
  }
}
layer {
  name: "Block3_cat4"
  type: "Concat"
  bottom: "Block3_conv1"
  bottom: "Block3_conv2"
  bottom: "Block3_conv3"
  bottom: "Block3_conv4"
  bottom: "Block3_conv5"
  top: "Block3_cat4"
}
layer {
  name: "transition3_bn1"
  type: "BN"
  bottom: "Block3_cat4"
  top: "transition3_bn1"
  param {
    lr_mult: 1
    decay_mult: 0
  }
  param {
    lr_mult: 1
    decay_mult: 0
  }
  param {
    lr_mult: 0
    decay_mult: 0
  }
  param {
    lr_mult: 0
    decay_mult: 0
  }
  bn_param {
    slope_filler {
      type: "constant"
      value: 1
    }
    bias_filler {
      type: "constant"
      value: 0
    }
    momentum: 0.95
    frozen: false
  }
}
layer {
  name: "transition3_conv1"
  type: "Convolution"
  bottom: "transition3_bn1"
  top: "transition3_conv1"
  param {
    lr_mult: 1
    decay_mult: 1
  }
  convolution_param {
    num_output: 128
    bias_term: true
    pad: 0
    kernel_size: 1
    stride: 1
    weight_filler {
      type: "msra"
    }
  }
}
layer {
  name: "transition3_average"
  type: "Pooling"
  bottom: "transition3_conv1"
  top: "transition3_average"
  pooling_param {
    pool: MAX
    kernel_size: 2
    stride: 2
  }
}
layer {
  name: "Block4_bn1"
  type: "BN"
  bottom: "transition3_average"
  top: "Block4_bn1"
  param {
    lr_mult: 1
    decay_mult: 0
  }
  param {
    lr_mult: 1
    decay_mult: 0
  }
  param {
    lr_mult: 0
    decay_mult: 0
  }
  param {
    lr_mult: 0
    decay_mult: 0
  }
  bn_param {
    slope_filler {
      type: "constant"
      value: 1
    }
    bias_filler {
      type: "constant"
      value: 0
    }
    momentum: 0.95
    frozen: false
  }
}
layer {
  name: "Block4_relu1"
  type: "ReLU"
  bottom: "Block4_bn1"
  top: "Block4_bn1"
}
layer {
  name: "Block4_conv1"
  type: "Convolution"
  bottom: "Block4_bn1"
  top: "Block4_conv1"
  param {
    lr_mult: 1
    decay_mult: 1
  }
  convolution_param {
    num_output: 18
    bias_term: true
    pad: 1
    kernel_size: 3
    stride: 1
    weight_filler {
      type: "msra"
    }
  }
}
layer {
  name: "Block4_bn2"
  type: "BN"
  bottom: "Block4_conv1"
  top: "Block4_bn2"
  param {
    lr_mult: 1
    decay_mult: 0
  }
  param {
    lr_mult: 1
    decay_mult: 0
  }
  param {
    lr_mult: 0
    decay_mult: 0
  }
  param {
    lr_mult: 0
    decay_mult: 0
  }
  bn_param {
    slope_filler {
      type: "constant"
      value: 1
    }
    bias_filler {
      type: "constant"
      value: 0
    }
    momentum: 0.95
    frozen: false
  }
}
layer {
  name: "Block4_relu2"
  type: "ReLU"
  bottom: "Block4_bn2"
  top: "Block4_bn2"
}
layer {
  name: "Block4_conv2"
  type: "Convolution"
  bottom: "Block4_bn2"
  top: "Block4_conv2"
  param {
    lr_mult: 1
    decay_mult: 1
  }
  convolution_param {
    num_output: 18
    bias_term: true
    pad: 1
    kernel_size: 3
    stride: 1
    weight_filler {
      type: "msra"
    }
  }
}
layer {
  name: "Block4_cat1"
  type: "Concat"
  bottom: "Block4_conv1"
  bottom: "Block4_conv2"
  top: "Block4_cat1"
}
layer {
  name: "Block4_bn3"
  type: "BN"
  bottom: "Block4_cat1"
  top: "Block4_bn3"
  param {
    lr_mult: 1
    decay_mult: 0
  }
  param {
    lr_mult: 1
    decay_mult: 0
  }
  param {
    lr_mult: 0
    decay_mult: 0
  }
  param {
    lr_mult: 0
    decay_mult: 0
  }
  bn_param {
    slope_filler {
      type: "constant"
      value: 1
    }
    bias_filler {
      type: "constant"
      value: 0
    }
    momentum: 0.95
    frozen: false
  }
}
layer {
  name: "Block4_relu3"
  type: "ReLU"
  bottom: "Block4_bn3"
  top: "Block4_bn3"
}
layer {
  name: "Block4_conv3"
  type: "Convolution"
  bottom: "Block4_bn3"
  top: "Block4_conv3"
  param {
    lr_mult: 1
    decay_mult: 1
  }
  convolution_param {
    num_output: 18
    bias_term: true
    pad: 1
    kernel_size: 3
    stride: 1
    weight_filler {
      type: "msra"
    }
  }
}
layer {
  name: "Block4_cat2"
  type: "Concat"
  bottom: "Block4_conv1"
  bottom: "Block4_conv2"
  bottom: "Block4_conv3"
  top: "Block4_cat2"
}
layer {
  name: "Block4_bn4"
  type: "BN"
  bottom: "Block4_cat2"
  top: "Block4_bn4"
  param {
    lr_mult: 1
    decay_mult: 0
  }
  param {
    lr_mult: 1
    decay_mult: 0
  }
  param {
    lr_mult: 0
    decay_mult: 0
  }
  param {
    lr_mult: 0
    decay_mult: 0
  }
  bn_param {
    slope_filler {
      type: "constant"
      value: 1
    }
    bias_filler {
      type: "constant"
      value: 0
    }
    momentum: 0.95
    frozen: false
  }
}
layer {
  name: "Block4_relu4"
  type: "ReLU"
  bottom: "Block4_bn4"
  top: "Block4_bn4"
}
layer {
  name: "Block4_conv4"
  type: "Convolution"
  bottom: "Block4_bn4"
  top: "Block4_conv4"
  param {
    lr_mult: 1
    decay_mult: 1
  }
  convolution_param {
    num_output: 18
    bias_term: true
    pad: 1
    kernel_size: 3
    stride: 1
    weight_filler {
      type: "msra"
    }
  }
}
layer {
  name: "Block4_cat3"
  type: "Concat"
  bottom: "Block4_conv1"
  bottom: "Block4_conv2"
  bottom: "Block4_conv3"
  bottom: "Block4_conv4"
  top: "Block4_cat3"
}
layer {
  name: "Block4_bn5"
  type: "BN"
  bottom: "Block4_cat3"
  top: "Block4_bn5"
  param {
    lr_mult: 1
    decay_mult: 0
  }
  param {
    lr_mult: 1
    decay_mult: 0
  }
  param {
    lr_mult: 0
    decay_mult: 0
  }
  param {
    lr_mult: 0
    decay_mult: 0
  }
  bn_param {
    slope_filler {
      type: "constant"
      value: 1
    }
    bias_filler {
      type: "constant"
      value: 0
    }
    momentum: 0.95
    frozen: false
  }
}
layer {
  name: "Block4_relu5"
  type: "ReLU"
  bottom: "Block4_bn5"
  top: "Block4_bn5"
}
layer {
  name: "Block4_conv5"
  type: "Convolution"
  bottom: "Block4_bn5"
  top: "Block4_conv5"
  param {
    lr_mult: 1
    decay_mult: 1
  }
  convolution_param {
    num_output: 18
    bias_term: true
    pad: 1
    kernel_size: 3
    stride: 1
    weight_filler {
      type: "msra"
    }
  }
}
layer {
  name: "Block4_cat4"
  type: "Concat"
  bottom: "Block4_conv1"
  bottom: "Block4_conv2"
  bottom: "Block4_conv3"
  bottom: "Block4_conv4"
  bottom: "Block4_conv5"
  top: "Block4_cat4"
}
layer {
  name: "transition4_bn1"
  type: "BN"
  bottom: "Block4_cat4"
  top: "transition4_bn1"
  param {
    lr_mult: 1
    decay_mult: 0
  }
  param {
    lr_mult: 1
    decay_mult: 0
  }
  param {
    lr_mult: 0
    decay_mult: 0
  }
  param {
    lr_mult: 0
    decay_mult: 0
  }
  bn_param {
    slope_filler {
      type: "constant"
      value: 1
    }
    bias_filler {
      type: "constant"
      value: 0
    }
    momentum: 0.95
    frozen: false
  }
}
layer {
  name: "transition4_conv1"
  type: "Convolution"
  bottom: "transition4_bn1"
  top: "transition4_conv1"
  param {
    lr_mult: 1
    decay_mult: 1
  }
  convolution_param {
    num_output: 128
    bias_term: true
    pad: 0
    kernel_size: 1
    stride: 1
    weight_filler {
      type: "msra"
    }
  }
}
layer {
  name: "transition4_average"
  type: "Pooling"
  bottom: "transition4_conv1"
  top: "transition4_average"
  pooling_param {
    pool: MAX
    kernel_size: 2
    stride: 2
  }
}
layer {
  name: "Block5_bn1"
  type: "BN"
  bottom: "transition4_average"
  top: "Block5_bn1"
  param {
    lr_mult: 1
    decay_mult: 0
  }
  param {
    lr_mult: 1
    decay_mult: 0
  }
  param {
    lr_mult: 0
    decay_mult: 0
  }
  param {
    lr_mult: 0
    decay_mult: 0
  }
  bn_param {
    slope_filler {
      type: "constant"
      value: 1
    }
    bias_filler {
      type: "constant"
      value: 0
    }
    momentum: 0.95
    frozen: false
  }
}
layer {
  name: "Block5_relu1"
  type: "ReLU"
  bottom: "Block5_bn1"
  top: "Block5_bn1"
}
layer {
  name: "Block5_conv1"
  type: "Convolution"
  bottom: "Block5_bn1"
  top: "Block5_conv1"
  param {
    lr_mult: 1
    decay_mult: 1
  }
  convolution_param {
    num_output: 128
    bias_term: true
    pad: 1
    kernel_size: 3
    stride: 1
    weight_filler {
      type: "msra"
    }
  }
}
layer {
  name: "Block5_bn2"
  type: "BN"
  bottom: "Block5_conv1"
  top: "Block5_bn2"
  param {
    lr_mult: 1
    decay_mult: 0
  }
  param {
    lr_mult: 1
    decay_mult: 0
  }
  param {
    lr_mult: 0
    decay_mult: 0
  }
  param {
    lr_mult: 0
    decay_mult: 0
  }
  bn_param {
    slope_filler {
      type: "constant"
      value: 1
    }
    bias_filler {
      type: "constant"
      value: 0
    }
    momentum: 0.95
    frozen: false
  }
}
layer {
  name: "Block5_relu2"
  type: "ReLU"
  bottom: "Block5_bn2"
  top: "Block5_bn2"
}
layer {
  name: "Block5_conv2"
  type: "Convolution"
  bottom: "Block5_bn2"
  top: "Block5_conv2"
  param {
    lr_mult: 1
    decay_mult: 1
  }
  convolution_param {
    num_output: 24
    bias_term: true
    pad: 1
    kernel_size: 3
    stride: 1
    weight_filler {
      type: "msra"
    }
  }
}
layer {
  name: "Block5_cat1"
  type: "Concat"
  bottom: "Block5_conv1"
  bottom: "Block5_conv2"
  top: "Block5_cat1"
}
layer {
  name: "Block5_bn3"
  type: "BN"
  bottom: "Block5_cat1"
  top: "Block5_bn3"
  param {
    lr_mult: 1
    decay_mult: 0
  }
  param {
    lr_mult: 1
    decay_mult: 0
  }
  param {
    lr_mult: 0
    decay_mult: 0
  }
  param {
    lr_mult: 0
    decay_mult: 0
  }
  bn_param {
    slope_filler {
      type: "constant"
      value: 1
    }
    bias_filler {
      type: "constant"
      value: 0
    }
    momentum: 0.95
    frozen: false
  }
}
layer {
  name: "Block5_relu3"
  type: "ReLU"
  bottom: "Block5_bn3"
  top: "Block5_bn3"
}
layer {
  name: "Block5_conv3"
  type: "Convolution"
  bottom: "Block5_bn3"
  top: "Block5_conv3"
  param {
    lr_mult: 1
    decay_mult: 1
  }
  convolution_param {
    num_output: 24
    bias_term: true
    pad: 1
    kernel_size: 3
    stride: 1
    weight_filler {
      type: "msra"
    }
  }
}
layer {
  name: "Block5_cat2"
  type: "Concat"
  bottom: "Block5_conv1"
  bottom: "Block5_conv2"
  bottom: "Block5_conv3"
  top: "Block5_cat2"
}
layer {
  name: "Block5_bn4"
  type: "BN"
  bottom: "Block5_cat2"
  top: "Block5_bn4"
  param {
    lr_mult: 1
    decay_mult: 0
  }
  param {
    lr_mult: 1
    decay_mult: 0
  }
  param {
    lr_mult: 0
    decay_mult: 0
  }
  param {
    lr_mult: 0
    decay_mult: 0
  }
  bn_param {
    slope_filler {
      type: "constant"
      value: 1
    }
    bias_filler {
      type: "constant"
      value: 0
    }
    momentum: 0.95
    frozen: false
  }
}
layer {
  name: "Block5_relu4"
  type: "ReLU"
  bottom: "Block5_bn4"
  top: "Block5_bn4"
}
layer {
  name: "Block5_conv4"
  type: "Convolution"
  bottom: "Block5_bn4"
  top: "Block5_conv4"
  param {
    lr_mult: 1
    decay_mult: 1
  }
  convolution_param {
    num_output: 24
    bias_term: true
    pad: 1
    kernel_size: 3
    stride: 1
    weight_filler {
      type: "msra"
    }
  }
}
layer {
  name: "Block5_cat3"
  type: "Concat"
  bottom: "Block5_conv1"
  bottom: "Block5_conv2"
  bottom: "Block5_conv3"
  bottom: "Block5_conv4"
  top: "Block5_cat3"
}
layer {
  name: "Block5_bn5"
  type: "BN"
  bottom: "Block5_cat3"
  top: "Block5_bn5"
  param {
    lr_mult: 1
    decay_mult: 0
  }
  param {
    lr_mult: 1
    decay_mult: 0
  }
  param {
    lr_mult: 0
    decay_mult: 0
  }
  param {
    lr_mult: 0
    decay_mult: 0
  }
  bn_param {
    slope_filler {
      type: "constant"
      value: 1
    }
    bias_filler {
      type: "constant"
      value: 0
    }
    momentum: 0.95
    frozen: false
  }
}
layer {
  name: "Block5_relu5"
  type: "ReLU"
  bottom: "Block5_bn5"
  top: "Block5_bn5"
}
layer {
  name: "Block5_conv5"
  type: "Convolution"
  bottom: "Block5_bn5"
  top: "Block5_conv5"
  param {
    lr_mult: 1
    decay_mult: 1
  }
  convolution_param {
    num_output: 24
    bias_term: true
    pad: 1
    kernel_size: 3
    stride: 1
    weight_filler {
      type: "msra"
    }
  }
}
layer {
  name: "Block5_cat4"
  type: "Concat"
  bottom: "Block5_conv1"
  bottom: "Block5_conv2"
  bottom: "Block5_conv3"
  bottom: "Block5_conv4"
  bottom: "Block5_conv5"
  top: "Block5_cat4"
}
layer {
  name: "transition5_bn1"
  type: "BN"
  bottom: "Block5_cat4"
  top: "transition5_bn1"
  param {
    lr_mult: 1
    decay_mult: 0
  }
  param {
    lr_mult: 1
    decay_mult: 0
  }
  param {
    lr_mult: 0
    decay_mult: 0
  }
  param {
    lr_mult: 0
    decay_mult: 0
  }
  bn_param {
    slope_filler {
      type: "constant"
      value: 1
    }
    bias_filler {
      type: "constant"
      value: 0
    }
    momentum: 0.95
    frozen: false
  }
}
layer {
  name: "transition5_conv1"
  type: "Convolution"
  bottom: "transition5_bn1"
  top: "transition5_conv1"
  param {
    lr_mult: 1
    decay_mult: 1
  }
  
I0724 17:07:17.332726 18690 layer_factory.hpp:77] Creating layer data
I0724 17:07:17.332761 18690 net.cpp:106] Creating Layer data
I0724 17:07:17.332767 18690 net.cpp:411] data -> data
I0724 17:07:17.332792 18690 net.cpp:411] data -> label
I0724 17:07:17.332801 18690 net.cpp:411] data -> (automatic)
I0724 17:07:17.333097 18690 image_seg_data_layer.cpp:46] Opening file /home/user/chao/ICNet-tensorflow-master/list/train_list.txt
I0724 17:07:17.350581 18690 image_seg_data_layer.cpp:63] Shuffling data
I0724 17:07:17.353788 18690 image_seg_data_layer.cpp:68] A total of 12705 images.
I0724 17:07:17.382455 18690 image_seg_data_layer.cpp:137] output data size: 5,3,512,512
I0724 17:07:17.382485 18690 image_seg_data_layer.cpp:141] output label size: 5,1,512,512
I0724 17:07:17.382489 18690 image_seg_data_layer.cpp:145] output data_dim size: 5,1,1,2
I0724 17:07:17.445078 18690 net.cpp:150] Setting up data
I0724 17:07:17.445119 18690 net.cpp:157] Top shape: 5 3 512 512 (3932160)
I0724 17:07:17.445125 18690 net.cpp:157] Top shape: 5 1 512 512 (1310720)
I0724 17:07:17.445129 18690 net.cpp:157] Top shape: 5 1 1 2 (10)
I0724 17:07:17.445132 18690 net.cpp:165] Memory required for data: 20971560
I0724 17:07:17.445143 18690 layer_factory.hpp:77] Creating layer data_sub1
I0724 17:07:17.445159 18690 net.cpp:106] Creating Layer data_sub1
I0724 17:07:17.445165 18690 net.cpp:454] data_sub1 <- data
I0724 17:07:17.445181 18690 net.cpp:411] data_sub1 -> data_sub1
I0724 17:07:17.446341 18690 net.cpp:150] Setting up data_sub1
I0724 17:07:17.446355 18690 net.cpp:157] Top shape: 5 3 512 512 (3932160)
I0724 17:07:17.446359 18690 net.cpp:165] Memory required for data: 36700200
I0724 17:07:17.446383 18690 layer_factory.hpp:77] Creating layer conv1
I0724 17:07:17.446403 18690 net.cpp:106] Creating Layer conv1
I0724 17:07:17.446406 18690 net.cpp:454] conv1 <- data_sub1
I0724 17:07:17.446418 18690 net.cpp:411] conv1 -> conv1
I0724 17:07:18.677183 18690 net.cpp:150] Setting up conv1
I0724 17:07:18.677245 18690 net.cpp:157] Top shape: 5 32 512 512 (41943040)
I0724 17:07:18.677253 18690 net.cpp:165] Memory required for data: 204472360
I0724 17:07:18.677407 18690 layer_factory.hpp:77] Creating layer Block1_bn1
I0724 17:07:18.677464 18690 net.cpp:106] Creating Layer Block1_bn1
I0724 17:07:18.677472 18690 net.cpp:454] Block1_bn1 <- conv1
I0724 17:07:18.677506 18690 net.cpp:411] Block1_bn1 -> Block1_bn1
I0724 17:07:18.679690 18690 net.cpp:150] Setting up Block1_bn1
I0724 17:07:18.679713 18690 net.cpp:157] Top shape: 5 32 512 512 (41943040)
I0724 17:07:18.679718 18690 net.cpp:165] Memory required for data: 372244520
I0724 17:07:18.679733 18690 layer_factory.hpp:77] Creating layer Block1_relu1
I0724 17:07:18.679750 18690 net.cpp:106] Creating Layer Block1_relu1
I0724 17:07:18.679756 18690 net.cpp:454] Block1_relu1 <- Block1_bn1
I0724 17:07:18.679765 18690 net.cpp:397] Block1_relu1 -> Block1_bn1 (in-place)
I0724 17:07:18.680253 18690 net.cpp:150] Setting up Block1_relu1
I0724 17:07:18.680269 18690 net.cpp:157] Top shape: 5 32 512 512 (41943040)
I0724 17:07:18.680274 18690 net.cpp:165] Memory required for data: 540016680
I0724 17:07:18.680289 18690 layer_factory.hpp:77] Creating layer Block1_conv1
I0724 17:07:18.680307 18690 net.cpp:106] Creating Layer Block1_conv1
I0724 17:07:18.680312 18690 net.cpp:454] Block1_conv1 <- Block1_bn1
I0724 17:07:18.680321 18690 net.cpp:411] Block1_conv1 -> Block1_conv1
I0724 17:07:18.685335 18690 net.cpp:150] Setting up Block1_conv1
I0724 17:07:18.685358 18690 net.cpp:157] Top shape: 5 6 512 512 (7864320)
I0724 17:07:18.685362 18690 net.cpp:165] Memory required for data: 571473960
I0724 17:07:18.685375 18690 layer_factory.hpp:77] Creating layer Block1_conv1_Block1_conv1_0_split
I0724 17:07:18.685390 18690 net.cpp:106] Creating Layer Block1_conv1_Block1_conv1_0_split
I0724 17:07:18.685395 18690 net.cpp:454] Block1_conv1_Block1_conv1_0_split <- Block1_conv1
I0724 17:07:18.685415 18690 net.cpp:411] Block1_conv1_Block1_conv1_0_split -> Block1_conv1_Block1_conv1_0_split_0
I0724 17:07:18.685431 18690 net.cpp:411] Block1_conv1_Block1_conv1_0_split -> Block1_conv1_Block1_conv1_0_split_1
I0724 17:07:18.685451 18690 net.cpp:411] Block1_conv1_Block1_conv1_0_split -> Block1_conv1_Block1_conv1_0_split_2
I0724 17:07:18.685461 18690 net.cpp:411] Block1_conv1_Block1_conv1_0_split -> Block1_conv1_Block1_conv1_0_split_3
I0724 17:07:18.685468 18690 net.cpp:411] Block1_conv1_Block1_conv1_0_split -> Block1_conv1_Block1_conv1_0_split_4
I0724 17:07:18.685561 18690 net.cpp:150] Setting up Block1_conv1_Block1_conv1_0_split
I0724 17:07:18.685575 18690 net.cpp:157] Top shape: 5 6 512 512 (7864320)
I0724 17:07:18.685580 18690 net.cpp:157] Top shape: 5 6 512 512 (7864320)
I0724 17:07:18.685585 18690 net.cpp:157] Top shape: 5 6 512 512 (7864320)
I0724 17:07:18.685590 18690 net.cpp:157] Top shape: 5 6 512 512 (7864320)
I0724 17:07:18.685595 18690 net.cpp:157] Top shape: 5 6 512 512 (7864320)
I0724 17:07:18.685600 18690 net.cpp:165] Memory required for data: 728760360
I0724 17:07:18.685603 18690 layer_factory.hpp:77] Creating layer Block1_bn2
I0724 17:07:18.685612 18690 net.cpp:106] Creating Layer Block1_bn2
I0724 17:07:18.685617 18690 net.cpp:454] Block1_bn2 <- Block1_conv1_Block1_conv1_0_split_0
I0724 17:07:18.685626 18690 net.cpp:411] Block1_bn2 -> Block1_bn2
I0724 17:07:18.687114 18690 net.cpp:150] Setting up Block1_bn2
I0724 17:07:18.687132 18690 net.cpp:157] Top shape: 5 6 512 512 (7864320)
I0724 17:07:18.687137 18690 net.cpp:165] Memory required for data: 760217640
I0724 17:07:18.687158 18690 layer_factory.hpp:77] Creating layer Block1_relu2
I0724 17:07:18.687602 18690 net.cpp:106] Creating Layer Block1_relu2
I0724 17:07:18.687620 18690 net.cpp:454] Block1_relu2 <- Block1_bn2
I0724 17:07:18.687644 18690 net.cpp:397] Block1_relu2 -> Block1_bn2 (in-place)
I0724 17:07:18.688297 18690 net.cpp:150] Setting up Block1_relu2
I0724 17:07:18.688313 18690 net.cpp:157] Top shape: 5 6 512 512 (7864320)
I0724 17:07:18.688318 18690 net.cpp:165] Memory required for data: 791674920
I0724 17:07:18.688323 18690 layer_factory.hpp:77] Creating layer Block1_conv2
I0724 17:07:18.688339 18690 net.cpp:106] Creating Layer Block1_conv2
I0724 17:07:18.688345 18690 net.cpp:454] Block1_conv2 <- Block1_bn2
I0724 17:07:18.688354 18690 net.cpp:411] Block1_conv2 -> Block1_conv2
I0724 17:07:18.692523 18690 net.cpp:150] Setting up Block1_conv2
I0724 17:07:18.692546 18690 net.cpp:157] Top shape: 5 6 512 512 (7864320)
I0724 17:07:18.692551 18690 net.cpp:165] Memory required for data: 823132200
I0724 17:07:18.692561 18690 layer_factory.hpp:77] Creating layer Block1_conv2_Block1_conv2_0_split
I0724 17:07:18.692570 18690 net.cpp:106] Creating Layer Block1_conv2_Block1_conv2_0_split
I0724 17:07:18.692575 18690 net.cpp:454] Block1_conv2_Block1_conv2_0_split <- Block1_conv2
I0724 17:07:18.692584 18690 net.cpp:411] Block1_conv2_Block1_conv2_0_split -> Block1_conv2_Block1_conv2_0_split_0
I0724 17:07:18.692595 18690 net.cpp:411] Block1_conv2_Block1_conv2_0_split -> Block1_conv2_Block1_conv2_0_split_1
I0724 17:07:18.692602 18690 net.cpp:411] Block1_conv2_Block1_conv2_0_split -> Block1_conv2_Block1_conv2_0_split_2
I0724 17:07:18.692615 18690 net.cpp:411] Block1_conv2_Block1_conv2_0_split -> Block1_conv2_Block1_conv2_0_split_3
I0724 17:07:18.692703 18690 net.cpp:150] Setting up Block1_conv2_Block1_conv2_0_split
I0724 17:07:18.692714 18690 net.cpp:157] Top shape: 5 6 512 512 (7864320)
I0724 17:07:18.692720 18690 net.cpp:157] Top shape: 5 6 512 512 (7864320)
I0724 17:07:18.692725 18690 net.cpp:157] Top shape: 5 6 512 512 (7864320)
I0724 17:07:18.692730 18690 net.cpp:157] Top shape: 5 6 512 512 (7864320)
I0724 17:07:18.692734 18690 net.cpp:165] Memory required for data: 948961320
I0724 17:07:18.692749 18690 layer_factory.hpp:77] Creating layer Block1_cat1
I0724 17:07:18.692759 18690 net.cpp:106] Creating Layer Block1_cat1
I0724 17:07:18.692764 18690 net.cpp:454] Block1_cat1 <- Block1_conv1_Block1_conv1_0_split_1
I0724 17:07:18.692770 18690 net.cpp:454] Block1_cat1 <- Block1_conv2_Block1_conv2_0_split_0
I0724 17:07:18.692777 18690 net.cpp:411] Block1_cat1 -> Block1_cat1
I0724 17:07:18.692811 18690 net.cpp:150] Setting up Block1_cat1
I0724 17:07:18.692821 18690 net.cpp:157] Top shape: 5 12 512 512 (15728640)
I0724 17:07:18.692824 18690 net.cpp:165] Memory required for data: 1011875880
I0724 17:07:18.692829 18690 layer_factory.hpp:77] Creating layer Block1_bn3
I0724 17:07:18.692840 18690 net.cpp:106] Creating Layer Block1_bn3
I0724 17:07:18.692845 18690 net.cpp:454] Block1_bn3 <- Block1_cat1
I0724 17:07:18.692862 18690 net.cpp:411] Block1_bn3 -> Block1_bn3
I0724 17:07:18.694815 18690 net.cpp:150] Setting up Block1_bn3
I0724 17:07:18.694835 18690 net.cpp:157] Top shape: 5 12 512 512 (15728640)
I0724 17:07:18.694839 18690 net.cpp:165] Memory required for data: 1074790440
I0724 17:07:18.694857 18690 layer_factory.hpp:77] Creating layer Block1_relu3
I0724 17:07:18.694869 18690 net.cpp:106] Creating Layer Block1_relu3
I0724 17:07:18.694874 18690 net.cpp:454] Block1_relu3 <- Block1_bn3
I0724 17:07:18.694882 18690 net.cpp:397] Block1_relu3 -> Block1_bn3 (in-place)
I0724 17:07:18.696547 18690 net.cpp:150] Setting up Block1_relu3
I0724 17:07:18.696570 18690 net.cpp:157] Top shape: 5 12 512 512 (15728640)
I0724 17:07:18.696575 18690 net.cpp:165] Memory required for data: 1137705000
I0724 17:07:18.696580 18690 layer_factory.hpp:77] Creating layer Block1_conv3
I0724 17:07:18.696591 18690 net.cpp:106] Creating Layer Block1_conv3
I0724 17:07:18.696597 18690 net.cpp:454] Block1_conv3 <- Block1_bn3
I0724 17:07:18.696619 18690 net.cpp:411] Block1_conv3 -> Block1_conv3
I0724 17:07:18.701009 18690 net.cpp:150] Setting up Block1_conv3
I0724 17:07:18.701027 18690 net.cpp:157] Top shape: 5 6 512 512 (7864320)
I0724 17:07:18.701033 18690 net.cpp:165] Memory required for data: 1169162280
I0724 17:07:18.701052 18690 layer_factory.hpp:77] Creating layer Block1_conv3_Block1_conv3_0_split
I0724 17:07:18.701445 18690 net.cpp:106] Creating Layer Block1_conv3_Block1_conv3_0_split
I0724 17:07:18.701457 18690 net.cpp:454] Block1_conv3_Block1_conv3_0_split <- Block1_conv3
I0724 17:07:18.701468 18690 net.cpp:411] Block1_conv3_Block1_conv3_0_split -> Block1_conv3_Block1_conv3_0_split_0
I0724 17:07:18.701478 18690 net.cpp:411] Block1_conv3_Block1_conv3_0_split -> Block1_conv3_Block1_conv3_0_split_1
I0724 17:07:18.701485 18690 net.cpp:411] Block1_conv3_Block1_conv3_0_split -> Block1_conv3_Block1_conv3_0_split_2
I0724 17:07:18.701575 18690 net.cpp:150] Setting up Block1_conv3_Block1_conv3_0_split
I0724 17:07:18.701587 18690 net.cpp:157] Top shape: 5 6 512 512 (7864320)
I0724 17:07:18.701592 18690 net.cpp:157] Top shape: 5 6 512 512 (7864320)
I0724 17:07:18.701597 18690 net.cpp:157] Top shape: 5 6 512 512 (7864320)
I0724 17:07:18.701601 18690 net.cpp:165] Memory required for data: 1263534120
I0724 17:07:18.701606 18690 layer_factory.hpp:77] Creating layer Block1_cat2
I0724 17:07:18.701620 18690 net.cpp:106] Creating Layer Block1_cat2
I0724 17:07:18.701625 18690 net.cpp:454] Block1_cat2 <- Block1_conv1_Block1_conv1_0_split_2
I0724 17:07:18.701640 18690 net.cpp:454] Block1_cat2 <- Block1_conv2_Block1_conv2_0_split_1
I0724 17:07:18.701648 18690 net.cpp:454] Block1_cat2 <- Block1_conv3_Block1_conv3_0_split_0
I0724 17:07:18.701654 18690 net.cpp:411] Block1_cat2 -> Block1_cat2
I0724 17:07:18.701687 18690 net.cpp:150] Setting up Block1_cat2
I0724 17:07:18.701697 18690 net.cpp:157] Top shape: 5 18 512 512 (23592960)
I0724 17:07:18.701702 18690 net.cpp:165] Memory required for data: 1357905960
I0724 17:07:18.701706 18690 layer_factory.hpp:77] Creating layer Block1_bn4
I0724 17:07:18.701717 18690 net.cpp:106] Creating Layer Block1_bn4
I0724 17:07:18.701722 18690 net.cpp:454] Block1_bn4 <- Block1_cat2
I0724 17:07:18.701730 18690 net.cpp:411] Block1_bn4 -> Block1_bn4
I0724 17:07:18.703310 18690 net.cpp:150] Setting up Block1_bn4
I0724 17:07:18.703328 18690 net.cpp:157] Top shape: 5 18 512 512 (23592960)
I0724 17:07:18.703332 18690 net.cpp:165] Memory required for data: 1452277800
I0724 17:07:18.703353 18690 layer_factory.hpp:77] Creating layer Block1_relu4
I0724 17:07:18.703364 18690 net.cpp:106] Creating Layer Block1_relu4
I0724 17:07:18.703369 18690 net.cpp:454] Block1_relu4 <- Block1_bn4
I0724 17:07:18.703377 18690 net.cpp:397] Block1_relu4 -> Block1_bn4 (in-place)
I0724 17:07:18.704453 18690 net.cpp:150] Setting up Block1_relu4
I0724 17:07:18.704470 18690 net.cpp:157] Top shape: 5 18 512 512 (23592960)
I0724 17:07:18.704474 18690 net.cpp:165] Memory required for data: 1546649640
I0724 17:07:18.704478 18690 layer_factory.hpp:77] Creating layer Block1_conv4
I0724 17:07:18.704491 18690 net.cpp:106] Creating Layer Block1_conv4
I0724 17:07:18.704496 18690 net.cpp:454] Block1_conv4 <- Block1_bn4
I0724 17:07:18.704516 18690 net.cpp:411] Block1_conv4 -> Block1_conv4
I0724 17:07:18.708597 18690 net.cpp:150] Setting up Block1_conv4
I0724 17:07:18.708618 18690 net.cpp:157] Top shape: 5 6 512 512 (7864320)
I0724 17:07:18.708622 18690 net.cpp:165] Memory required for data: 1578106920
I0724 17:07:18.708633 18690 layer_factory.hpp:77] Creating layer Block1_conv4_Block1_conv4_0_split
I0724 17:07:18.708640 18690 net.cpp:106] Creating Layer Block1_conv4_Block1_conv4_0_split
I0724 17:07:18.708647 18690 net.cpp:454] Block1_conv4_Block1_conv4_0_split <- Block1_conv4
I0724 17:07:18.708665 18690 net.cpp:411] Block1_conv4_Block1_conv4_0_split -> Block1_conv4_Block1_conv4_0_split_0
I0724 17:07:18.708678 18690 net.cpp:411] Block1_conv4_Block1_conv4_0_split -> Block1_conv4_Block1_conv4_0_split_1
I0724 17:07:18.708735 18690 net.cpp:150] Setting up Block1_conv4_Block1_conv4_0_split
I0724 17:07:18.708746 18690 net.cpp:157] Top shape: 5 6 512 512 (7864320)
I0724 17:07:18.708751 18690 net.cpp:157] Top shape: 5 6 512 512 (7864320)
I0724 17:07:18.708755 18690 net.cpp:165] Memory required for data: 1641021480
I0724 17:07:18.708767 18690 layer_factory.hpp:77] Creating layer Block1_cat3
I0724 17:07:18.708775 18690 net.cpp:106] Creating Layer Block1_cat3
I0724 17:07:18.708779 18690 net.cpp:454] Block1_cat3 <- Block1_conv1_Block1_conv1_0_split_3
I0724 17:07:18.708784 18690 net.cpp:454] Block1_cat3 <- Block1_conv2_Block1_conv2_0_split_2
I0724 17:07:18.708789 18690 net.cpp:454] Block1_cat3 <- Block1_conv3_Block1_conv3_0_split_1
I0724 17:07:18.708794 18690 net.cpp:454] Block1_cat3 <- Block1_conv4_Block1_conv4_0_split_0
I0724 17:07:18.708801 18690 net.cpp:411] Block1_cat3 -> Block1_cat3
I0724 17:07:18.708832 18690 net.cpp:150] Setting up Block1_cat3
I0724 17:07:18.708858 18690 net.cpp:157] Top shape: 5 24 512 512 (31457280)
I0724 17:07:18.708863 18690 net.cpp:165] Memory required for data: 1766850600
I0724 17:07:18.708866 18690 layer_factory.hpp:77] Creating layer Block1_bn5
I0724 17:07:18.708874 18690 net.cpp:106] Creating Layer Block1_bn5
I0724 17:07:18.708878 18690 net.cpp:454] Block1_bn5 <- Block1_cat3
I0724 17:07:18.708899 18690 net.cpp:411] Block1_bn5 -> Block1_bn5
I0724 17:07:18.710387 18690 net.cpp:150] Setting up Block1_bn5
I0724 17:07:18.710407 18690 net.cpp:157] Top shape: 5 24 512 512 (31457280)
I0724 17:07:18.710412 18690 net.cpp:165] Memory required for data: 1892679720
I0724 17:07:18.710424 18690 layer_factory.hpp:77] Creating layer Block1_relu5
I0724 17:07:18.710433 18690 net.cpp:106] Creating Layer Block1_relu5
I0724 17:07:18.710438 18690 net.cpp:454] Block1_relu5 <- Block1_bn5
I0724 17:07:18.710443 18690 net.cpp:397] Block1_relu5 -> Block1_bn5 (in-place)
I0724 17:07:18.710959 18690 net.cpp:150] Setting up Block1_relu5
I0724 17:07:18.710973 18690 net.cpp:157] Top shape: 5 24 512 512 (31457280)
I0724 17:07:18.710978 18690 net.cpp:165] Memory required for data: 2018508840
I0724 17:07:18.710994 18690 layer_factory.hpp:77] Creating layer Block1_conv5
I0724 17:07:18.711007 18690 net.cpp:106] Creating Layer Block1_conv5
I0724 17:07:18.711014 18690 net.cpp:454] Block1_conv5 <- Block1_bn5
I0724 17:07:18.711022 18690 net.cpp:411] Block1_conv5 -> Block1_conv5
I0724 17:07:18.713750 18690 net.cpp:150] Setting up Block1_conv5
I0724 17:07:18.713770 18690 net.cpp:157] Top shape: 5 6 512 512 (7864320)
I0724 17:07:18.713774 18690 net.cpp:165] Memory required for data: 2049966120
I0724 17:07:18.713793 18690 layer_factory.hpp:77] Creating layer Block1_cat4
I0724 17:07:18.713802 18690 net.cpp:106] Creating Layer Block1_cat4
I0724 17:07:18.713809 18690 net.cpp:454] Block1_cat4 <- Block1_conv1_Block1_conv1_0_split_4
I0724 17:07:18.713814 18690 net.cpp:454] Block1_cat4 <- Block1_conv2_Block1_conv2_0_split_3
I0724 17:07:18.713819 18690 net.cpp:454] Block1_cat4 <- Block1_conv3_Block1_conv3_0_split_2
I0724 17:07:18.713824 18690 net.cpp:454] Block1_cat4 <- Block1_conv4_Block1_conv4_0_split_1
I0724 17:07:18.713829 18690 net.cpp:454] Block1_cat4 <- Block1_conv5
I0724 17:07:18.713835 18690 net.cpp:411] Block1_cat4 -> Block1_cat4
I0724 17:07:18.713881 18690 net.cpp:150] Setting up Block1_cat4
I0724 17:07:18.713891 18690 net.cpp:157] Top shape: 5 30 512 512 (39321600)
I0724 17:07:18.713896 18690 net.cpp:165] Memory required for data: 2207252520
I0724 17:07:18.713899 18690 layer_factory.hpp:77] Creating layer transition1_bn1
I0724 17:07:18.713912 18690 net.cpp:106] Creating Layer transition1_bn1
I0724 17:07:18.713915 18690 net.cpp:454] transition1_bn1 <- Block1_cat4
I0724 17:07:18.713934 18690 net.cpp:411] transition1_bn1 -> transition1_bn1
I0724 17:07:18.715504 18690 net.cpp:150] Setting up transition1_bn1
I0724 17:07:18.715521 18690 net.cpp:157] Top shape: 5 30 512 512 (39321600)
I0724 17:07:18.715528 18690 net.cpp:165] Memory required for data: 2364538920
I0724 17:07:18.715538 18690 layer_factory.hpp:77] Creating layer transition1_conv1
I0724 17:07:18.715561 18690 net.cpp:106] Creating Layer transition1_conv1
I0724 17:07:18.715566 18690 net.cpp:454] transition1_conv1 <- transition1_bn1
I0724 17:07:18.715577 18690 net.cpp:411] transition1_conv1 -> transition1_conv1
I0724 17:07:18.717981 18690 net.cpp:150] Setting up transition1_conv1
I0724 17:07:18.717999 18690 net.cpp:157] Top shape: 5 128 512 512 (167772160)
I0724 17:07:18.718004 18690 net.cpp:165] Memory required for data: 3035627560
I0724 17:07:18.718014 18690 layer_factory.hpp:77] Creating layer transition1_average
I0724 17:07:18.718024 18690 net.cpp:106] Creating Layer transition1_average
I0724 17:07:18.718027 18690 net.cpp:454] transition1_average <- transition1_conv1
I0724 17:07:18.718036 18690 net.cpp:411] transition1_average -> transition1_average
I0724 17:07:18.718117 18690 net.cpp:150] Setting up transition1_average
I0724 17:07:18.718128 18690 net.cpp:157] Top shape: 5 128 256 256 (41943040)
I0724 17:07:18.718145 18690 net.cpp:165] Memory required for data: 3203399720
I0724 17:07:18.718150 18690 layer_factory.hpp:77] Creating layer Block2_bn1
I0724 17:07:18.718160 18690 net.cpp:106] Creating Layer Block2_bn1
I0724 17:07:18.718166 18690 net.cpp:454] Block2_bn1 <- transition1_average
I0724 17:07:18.718173 18690 net.cpp:411] Block2_bn1 -> Block2_bn1
I0724 17:07:18.719487 18690 net.cpp:150] Setting up Block2_bn1
I0724 17:07:18.719504 18690 net.cpp:157] Top shape: 5 128 256 256 (41943040)
I0724 17:07:18.719511 18690 net.cpp:165] Memory required for data: 3371171880
I0724 17:07:18.719521 18690 layer_factory.hpp:77] Creating layer Block2_relu1
I0724 17:07:18.719537 18690 net.cpp:106] Creating Layer Block2_relu1
I0724 17:07:18.719542 18690 net.cpp:454] Block2_relu1 <- Block2_bn1
I0724 17:07:18.719550 18690 net.cpp:397] Block2_relu1 -> Block2_bn1 (in-place)
I0724 17:07:18.720234 18690 net.cpp:150] Setting up Block2_relu1
I0724 17:07:18.720252 18690 net.cpp:157] Top shape: 5 128 256 256 (41943040)
I0724 17:07:18.720255 18690 net.cpp:165] Memory required for data: 3538944040
I0724 17:07:18.720260 18690 layer_factory.hpp:77] Creating layer Block2_conv1
I0724 17:07:18.720273 18690 net.cpp:106] Creating Layer Block2_conv1
I0724 17:07:18.720278 18690 net.cpp:454] Block2_conv1 <- Block2_bn1
I0724 17:07:18.720288 18690 net.cpp:411] Block2_conv1 -> Block2_conv1
I0724 17:07:18.723453 18690 net.cpp:150] Setting up Block2_conv1
I0724 17:07:18.723470 18690 net.cpp:157] Top shape: 5 6 256 256 (1966080)
I0724 17:07:18.723474 18690 net.cpp:165] Memory required for data: 3546808360
I0724 17:07:18.723484 18690 layer_factory.hpp:77] Creating layer Block2_conv1_Block2_conv1_0_split
I0724 17:07:18.723500 18690 net.cpp:106] Creating Layer Block2_conv1_Block2_conv1_0_split
I0724 17:07:18.723505 18690 net.cpp:454] Block2_conv1_Block2_conv1_0_split <- Block2_conv1
I0724 17:07:18.723512 18690 net.cpp:411] Block2_conv1_Block2_conv1_0_split -> Block2_conv1_Block2_conv1_0_split_0
I0724 17:07:18.723529 18690 net.cpp:411] Block2_conv1_Block2_conv1_0_split -> Block2_conv1_Block2_conv1_0_split_1
I0724 17:07:18.723537 18690 net.cpp:411] Block2_conv1_Block2_conv1_0_split -> Block2_conv1_Block2_conv1_0_split_2
I0724 17:07:18.723544 18690 net.cpp:411] Block2_conv1_Block2_conv1_0_split -> Block2_conv1_Block2_conv1_0_split_3
I0724 17:07:18.723551 18690 net.cpp:411] Block2_conv1_Block2_conv1_0_split -> Block2_conv1_Block2_conv1_0_split_4
I0724 17:07:18.723646 18690 net.cpp:150] Setting up Block2_conv1_Block2_conv1_0_split
I0724 17:07:18.723657 18690 net.cpp:157] Top shape: 5 6 256 256 (1966080)
I0724 17:07:18.723664 18690 net.cpp:157] Top shape: 5 6 256 256 (1966080)
I0724 17:07:18.723670 18690 net.cpp:157] Top shape: 5 6 256 256 (1966080)
I0724 17:07:18.723673 18690 net.cpp:157] Top shape: 5 6 256 256 (1966080)
I0724 17:07:18.723678 18690 net.cpp:157] Top shape: 5 6 256 256 (1966080)
I0724 17:07:18.723681 18690 net.cpp:165] Memory required for data: 3586129960
I0724 17:07:18.723685 18690 layer_factory.hpp:77] Creating layer Block2_bn2
I0724 17:07:18.723704 18690 net.cpp:106] Creating Layer Block2_bn2
I0724 17:07:18.723711 18690 net.cpp:454] Block2_bn2 <- Block2_conv1_Block2_conv1_0_split_0
I0724 17:07:18.723718 18690 net.cpp:411] Block2_bn2 -> Block2_bn2
I0724 17:07:18.724033 18690 net.cpp:150] Setting up Block2_bn2
I0724 17:07:18.724045 18690 net.cpp:157] Top shape: 5 6 256 256 (1966080)
I0724 17:07:18.724050 18690 net.cpp:165] Memory required for data: 3593994280
I0724 17:07:18.724058 18690 layer_factory.hpp:77] Creating layer Block2_relu2
I0724 17:07:18.724064 18690 net.cpp:106] Creating Layer Block2_relu2
I0724 17:07:18.724069 18690 net.cpp:454] Block2_relu2 <- Block2_bn2
I0724 17:07:18.724076 18690 net.cpp:397] Block2_relu2 -> Block2_bn2 (in-place)
I0724 17:07:18.724582 18690 net.cpp:150] Setting up Block2_relu2
I0724 17:07:18.724596 18690 net.cpp:157] Top shape: 5 6 256 256 (1966080)
I0724 17:07:18.724601 18690 net.cpp:165] Memory required for data: 3601858600
I0724 17:07:18.724606 18690 layer_factory.hpp:77] Creating layer Block2_conv2
I0724 17:07:18.724629 18690 net.cpp:106] Creating Layer Block2_conv2
I0724 17:07:18.724635 18690 net.cpp:454] Block2_conv2 <- Block2_bn2
I0724 17:07:18.724643 18690 net.cpp:411] Block2_conv2 -> Block2_conv2
I0724 17:07:18.726706 18690 net.cpp:150] Setting up Block2_conv2
I0724 17:07:18.726722 18690 net.cpp:157] Top shape: 5 6 256 256 (1966080)
I0724 17:07:18.726725 18690 net.cpp:165] Memory required for data: 3609722920
I0724 17:07:18.726734 18690 layer_factory.hpp:77] Creating layer Block2_conv2_Block2_conv2_0_split
I0724 17:07:18.726749 18690 net.cpp:106] Creating Layer Block2_conv2_Block2_conv2_0_split
I0724 17:07:18.726754 18690 net.cpp:454] Block2_conv2_Block2_conv2_0_split <- Block2_conv2
I0724 17:07:18.726760 18690 net.cpp:411] Block2_conv2_Block2_conv2_0_split -> Block2_conv2_Block2_conv2_0_split_0
I0724 17:07:18.726771 18690 net.cpp:411] Block2_conv2_Block2_conv2_0_split -> Block2_conv2_Block2_conv2_0_split_1
I0724 17:07:18.726779 18690 net.cpp:411] Block2_conv2_Block2_conv2_0_split -> Block2_conv2_Block2_conv2_0_split_2
I0724 17:07:18.726786 18690 net.cpp:411] Block2_conv2_Block2_conv2_0_split -> Block2_conv2_Block2_conv2_0_split_3
I0724 17:07:18.726864 18690 net.cpp:150] Setting up Block2_conv2_Block2_conv2_0_split
I0724 17:07:18.726876 18690 net.cpp:157] Top shape: 5 6 256 256 (1966080)
I0724 17:07:18.726882 18690 net.cpp:157] Top shape: 5 6 256 256 (1966080)
I0724 17:07:18.726887 18690 net.cpp:157] Top shape: 5 6 256 256 (1966080)
I0724 17:07:18.726891 18690 net.cpp:157] Top shape: 5 6 256 256 (1966080)
I0724 17:07:18.726896 18690 net.cpp:165] Memory required for data: 3641180200
I0724 17:07:18.726909 18690 layer_factory.hpp:77] Creating layer Block2_cat1
I0724 17:07:18.726917 18690 net.cpp:106] Creating Layer Block2_cat1
I0724 17:07:18.726922 18690 net.cpp:454] Block2_cat1 <- Block2_conv1_Block2_conv1_0_split_1
I0724 17:07:18.726927 18690 net.cpp:454] Block2_cat1 <- Block2_conv2_Block2_conv2_0_split_0
I0724 17:07:18.726934 18690 net.cpp:411] Block2_cat1 -> Block2_cat1
I0724 17:07:18.726969 18690 net.cpp:150] Setting up Block2_cat1
I0724 17:07:18.726979 18690 net.cpp:157] Top shape: 5 12 256 256 (3932160)
I0724 17:07:18.726981 18690 net.cpp:165] Memory required for data: 3656908840
I0724 17:07:18.726986 18690 layer_factory.hpp:77] Creating layer Block2_bn3
I0724 17:07:18.726995 18690 net.cpp:106] Creating Layer Block2_bn3
I0724 17:07:18.726999 18690 net.cpp:454] Block2_bn3 <- Block2_cat1
I0724 17:07:18.727008 18690 net.cpp:411] Block2_bn3 -> Block2_bn3
I0724 17:07:18.727314 18690 net.cpp:150] Setting up Block2_bn3
I0724 17:07:18.727325 18690 net.cpp:157] Top shape: 5 12 256 256 (3932160)
I0724 17:07:18.727329 18690 net.cpp:165] Memory required for data: 3672637480
I0724 17:07:18.727339 18690 layer_factory.hpp:77] Creating layer Block2_relu3
I0724 17:07:18.727344 18690 net.cpp:106] Creating Layer Block2_relu3
I0724 17:07:18.727349 18690 net.cpp:454] Block2_relu3 <- Block2_bn3
I0724 17:07:18.727356 18690 net.cpp:397] Block2_relu3 -> Block2_bn3 (in-place)
I0724 17:07:18.727860 18690 net.cpp:150] Setting up Block2_relu3
I0724 17:07:18.727874 18690 net.cpp:157] Top shape: 5 12 256 256 (3932160)
I0724 17:07:18.727879 18690 net.cpp:165] Memory required for data: 3688366120
I0724 17:07:18.727891 18690 layer_factory.hpp:77] Creating layer Block2_conv3
I0724 17:07:18.727913 18690 net.cpp:106] Creating Layer Block2_conv3
I0724 17:07:18.727919 18690 net.cpp:454] Block2_conv3 <- Block2_bn3
I0724 17:07:18.727928 18690 net.cpp:411] Block2_conv3 -> Block2_conv3
I0724 17:07:18.729974 18690 net.cpp:150] Setting up Block2_conv3
I0724 17:07:18.729990 18690 net.cpp:157] Top shape: 5 6 256 256 (1966080)
I0724 17:07:18.729995 18690 net.cpp:165] Memory required for data: 3696230440
I0724 17:07:18.730003 18690 layer_factory.hpp:77] Creating layer Block2_conv3_Block2_conv3_0_split
I0724 17:07:18.730015 18690 net.cpp:106] Creating Layer Block2_conv3_Block2_conv3_0_split
I0724 17:07:18.730020 18690 net.cpp:454] Block2_conv3_Block2_conv3_0_split <- Block2_conv3
I0724 17:07:18.730028 18690 net.cpp:411] Block2_conv3_Block2_conv3_0_split -> Block2_conv3_Block2_conv3_0_split_0
I0724 17:07:18.730048 18690 net.cpp:411] Block2_conv3_Block2_conv3_0_split -> Block2_conv3_Block2_conv3_0_split_1
I0724 17:07:18.730057 18690 net.cpp:411] Block2_conv3_Block2_conv3_0_split -> Block2_conv3_Block2_conv3_0_split_2
I0724 17:07:18.730123 18690 net.cpp:150] Setting up Block2_conv3_Block2_conv3_0_split
I0724 17:07:18.730134 18690 net.cpp:157] Top shape: 5 6 256 256 (1966080)
I0724 17:07:18.730139 18690 net.cpp:157] Top shape: 5 6 256 256 (1966080)
I0724 17:07:18.730142 18690 net.cpp:157] Top shape: 5 6 256 256 (1966080)
I0724 17:07:18.730146 18690 net.cpp:165] Memory required for data: 3719823400
I0724 17:07:18.730151 18690 layer_factory.hpp:77] Creating layer Block2_cat2
I0724 17:07:18.730159 18690 net.cpp:106] Creating Layer Block2_cat2
I0724 17:07:18.730163 18690 net.cpp:454] Block2_cat2 <- Block2_conv1_Block2_conv1_0_split_2
I0724 17:07:18.730168 18690 net.cpp:454] Block2_cat2 <- Block2_conv2_Block2_conv2_0_split_1
I0724 17:07:18.730173 18690 net.cpp:454] Block2_cat2 <- Block2_conv3_Block2_conv3_0_split_0
I0724 17:07:18.730180 18690 net.cpp:411] Block2_cat2 -> Block2_cat2
I0724 17:07:18.730209 18690 net.cpp:150] Setting up Block2_cat2
I0724 17:07:18.730218 18690 net.cpp:157] Top shape: 5 18 256 256 (5898240)
I0724 17:07:18.730222 18690 net.cpp:165] Memory required for data: 3743416360
I0724 17:07:18.730226 18690 layer_factory.hpp:77] Creating layer Block2_bn4
I0724 17:07:18.730245 18690 net.cpp:106] Creating Layer Block2_bn4
I0724 17:07:18.730250 18690 net.cpp:454] Block2_bn4 <- Block2_cat2
I0724 17:07:18.730259 18690 net.cpp:411] Block2_bn4 -> Block2_bn4
I0724 17:07:18.730556 18690 net.cpp:150] Setting up Block2_bn4
I0724 17:07:18.730569 18690 net.cpp:157] Top shape: 5 18 256 256 (5898240)
I0724 17:07:18.730573 18690 net.cpp:165] Memory required for data: 3767009320
I0724 17:07:18.730582 18690 layer_factory.hpp:77] Creating layer Block2_relu4
I0724 17:07:18.730589 18690 net.cpp:106] Creating Layer Block2_relu4
I0724 17:07:18.730593 18690 net.cpp:454] Block2_relu4 <- Block2_bn4
I0724 17:07:18.730598 18690 net.cpp:397] Block2_relu4 -> Block2_bn4 (in-place)
I0724 17:07:18.731118 18690 net.cpp:150] Setting up Block2_relu4
I0724 17:07:18.731133 18690 net.cpp:157] Top shape: 5 18 256 256 (5898240)
I0724 17:07:18.731137 18690 net.cpp:165] Memory required for data: 3790602280
I0724 17:07:18.731142 18690 layer_factory.hpp:77] Creating layer Block2_conv4
I0724 17:07:18.731153 18690 net.cpp:106] Creating Layer Block2_conv4
I0724 17:07:18.731158 18690 net.cpp:454] Block2_conv4 <- Block2_bn4
I0724 17:07:18.731164 18690 net.cpp:411] Block2_conv4 -> Block2_conv4
I0724 17:07:18.733186 18690 net.cpp:150] Setting up Block2_conv4
I0724 17:07:18.733203 18690 net.cpp:157] Top shape: 5 6 256 256 (1966080)
I0724 17:07:18.733207 18690 net.cpp:165] Memory required for data: 3798466600
I0724 17:07:18.733224 18690 layer_factory.hpp:77] Creating layer Block2_conv4_Block2_conv4_0_split
I0724 17:07:18.733234 18690 net.cpp:106] Creating Layer Block2_conv4_Block2_conv4_0_split
I0724 17:07:18.733242 18690 net.cpp:454] Block2_conv4_Block2_conv4_0_split <- Block2_conv4
I0724 17:07:18.733248 18690 net.cpp:411] Block2_conv4_Block2_conv4_0_split -> Block2_conv4_Block2_conv4_0_split_0
I0724 17:07:18.733258 18690 net.cpp:411] Block2_conv4_Block2_conv4_0_split -> Block2_conv4_Block2_conv4_0_split_1
I0724 17:07:18.733310 18690 net.cpp:150] Setting up Block2_conv4_Block2_conv4_0_split
I0724 17:07:18.733320 18690 net.cpp:157] Top shape: 5 6 256 256 (1966080)
I0724 17:07:18.733325 18690 net.cpp:157] Top shape: 5 6 256 256 (1966080)
I0724 17:07:18.733328 18690 net.cpp:165] Memory required for data: 3814195240
I0724 17:07:18.733332 18690 layer_factory.hpp:77] Creating layer Block2_cat3
I0724 17:07:18.733338 18690 net.cpp:106] Creating Layer Block2_cat3
I0724 17:07:18.733342 18690 net.cpp:454] Block2_cat3 <- Block2_conv1_Block2_conv1_0_split_3
I0724 17:07:18.733347 18690 net.cpp:454] Block2_cat3 <- Block2_conv2_Block2_conv2_0_split_2
I0724 17:07:18.733352 18690 net.cpp:454] Block2_cat3 <- Block2_conv3_Block2_conv3_0_split_1
I0724 17:07:18.733371 18690 net.cpp:454] Block2_cat3 <- Block2_conv4_Block2_conv4_0_split_0
I0724 17:07:18.733379 18690 net.cpp:411] Block2_cat3 -> Block2_cat3
I0724 17:07:18.733413 18690 net.cpp:150] Setting up Block2_cat3
I0724 17:07:18.733422 18690 net.cpp:157] Top shape: 5 24 256 256 (7864320)
I0724 17:07:18.733427 18690 net.cpp:165] Memory required for data: 3845652520
I0724 17:07:18.733430 18690 layer_factory.hpp:77] Creating layer Block2_bn5
I0724 17:07:18.733438 18690 net.cpp:106] Creating Layer Block2_bn5
I0724 17:07:18.733441 18690 net.cpp:454] Block2_bn5 <- Block2_cat3
I0724 17:07:18.733459 18690 net.cpp:411] Block2_bn5 -> Block2_bn5
I0724 17:07:18.734792 18690 net.cpp:150] Setting up Block2_bn5
I0724 17:07:18.734808 18690 net.cpp:157] Top shape: 5 24 256 256 (7864320)
I0724 17:07:18.734812 18690 net.cpp:165] Memory required for data: 3877109800
I0724 17:07:18.734835 18690 layer_factory.hpp:77] Creating layer Block2_relu5
I0724 17:07:18.734855 18690 net.cpp:106] Creating Layer Block2_relu5
I0724 17:07:18.734863 18690 net.cpp:454] Block2_relu5 <- Block2_bn5
I0724 17:07:18.734871 18690 net.cpp:397] Block2_relu5 -> Block2_bn5 (in-place)
I0724 17:07:18.735533 18690 net.cpp:150] Setting up Block2_relu5
I0724 17:07:18.735551 18690 net.cpp:157] Top shape: 5 24 256 256 (7864320)
I0724 17:07:18.735556 18690 net.cpp:165] Memory required for data: 3908567080
I0724 17:07:18.735561 18690 layer_factory.hpp:77] Creating layer Block2_conv5
I0724 17:07:18.735572 18690 net.cpp:106] Creating Layer Block2_conv5
I0724 17:07:18.735577 18690 net.cpp:454] Block2_conv5 <- Block2_bn5
I0724 17:07:18.735584 18690 net.cpp:411] Block2_conv5 -> Block2_conv5
I0724 17:07:18.737625 18690 net.cpp:150] Setting up Block2_conv5
I0724 17:07:18.737645 18690 net.cpp:157] Top shape: 5 6 256 256 (1966080)
I0724 17:07:18.737650 18690 net.cpp:165] Memory required for data: 3916431400
I0724 17:07:18.737660 18690 layer_factory.hpp:77] Creating layer Block2_cat4
I0724 17:07:18.737668 18690 net.cpp:106] Creating Layer Block2_cat4
I0724 17:07:18.737673 18690 net.cpp:454] Block2_cat4 <- Block2_conv1_Block2_conv1_0_split_4
I0724 17:07:18.737679 18690 net.cpp:454] Block2_cat4 <- Block2_conv2_Block2_conv2_0_split_3
I0724 17:07:18.737684 18690 net.cpp:454] Block2_cat4 <- Block2_conv3_Block2_conv3_0_split_2
I0724 17:07:18.737687 18690 net.cpp:454] Block2_cat4 <- Block2_conv4_Block2_conv4_0_split_1
I0724 17:07:18.737692 18690 net.cpp:454] Block2_cat4 <- Block2_conv5
I0724 17:07:18.737700 18690 net.cpp:411] Block2_cat4 -> Block2_cat4
I0724 17:07:18.737735 18690 net.cpp:150] Setting up Block2_cat4
I0724 17:07:18.737748 18690 net.cpp:157] Top shape: 5 30 256 256 (9830400)
I0724 17:07:18.737752 18690 net.cpp:165] Memory required for data: 3955753000
I0724 17:07:18.737756 18690 layer_factory.hpp:77] Creating layer transition2_bn1
I0724 17:07:18.737763 18690 net.cpp:106] Creating Layer transition2_bn1
I0724 17:07:18.737767 18690 net.cpp:454] transition2_bn1 <- Block2_cat4
I0724 17:07:18.737776 18690 net.cpp:411] transition2_bn1 -> transition2_bn1
I0724 17:07:18.738276 18690 net.cpp:150] Setting up transition2_bn1
I0724 17:07:18.738294 18690 net.cpp:157] Top shape: 5 30 256 256 (9830400)
I0724 17:07:18.738302 18690 net.cpp:165] Memory required for data: 3995074600
I0724 17:07:18.738338 18690 layer_factory.hpp:77] Creating layer transition2_conv1
I0724 17:07:18.738363 18690 net.cpp:106] Creating Layer transition2_conv1
I0724 17:07:18.738376 18690 net.cpp:454] transition2_conv1 <- transition2_bn1
I0724 17:07:18.738391 18690 net.cpp:411] transition2_conv1 -> transition2_conv1
I0724 17:07:18.741240 18690 net.cpp:150] Setting up transition2_conv1
I0724 17:07:18.741257 18690 net.cpp:157] Top shape: 5 128 256 256 (41943040)
I0724 17:07:18.741261 18690 net.cpp:165] Memory required for data: 4162846760
I0724 17:07:18.741269 18690 layer_factory.hpp:77] Creating layer transition2_average
I0724 17:07:18.741281 18690 net.cpp:106] Creating Layer transition2_average
I0724 17:07:18.741287 18690 net.cpp:454] transition2_average <- transition2_conv1
I0724 17:07:18.741294 18690 net.cpp:411] transition2_average -> transition2_average
I0724 17:07:18.741364 18690 net.cpp:150] Setting up transition2_average
I0724 17:07:18.741375 18690 net.cpp:157] Top shape: 5 128 128 128 (10485760)
I0724 17:07:18.741379 18690 net.cpp:165] Memory required for data: 4204789800
I0724 17:07:18.741382 18690 layer_factory.hpp:77] Creating layer Block3_bn1
I0724 17:07:18.741391 18690 net.cpp:106] Creating Layer Block3_bn1
I0724 17:07:18.741396 18690 net.cpp:454] Block3_bn1 <- transition2_average
I0724 17:07:18.741411 18690 net.cpp:411] Block3_bn1 -> Block3_bn1
I0724 17:07:18.741838 18690 net.cpp:150] Setting up Block3_bn1
I0724 17:07:18.741878 18690 net.cpp:157] Top shape: 5 128 128 128 (10485760)
I0724 17:07:18.741899 18690 net.cpp:165] Memory required for data: 4246732840
I0724 17:07:18.741945 18690 layer_factory.hpp:77] Creating layer Block3_relu1
I0724 17:07:18.741971 18690 net.cpp:106] Creating Layer Block3_relu1
I0724 17:07:18.741992 18690 net.cpp:454] Block3_relu1 <- Block3_bn1
I0724 17:07:18.742015 18690 net.cpp:397] Block3_relu1 -> Block3_bn1 (in-place)
I0724 17:07:18.742563 18690 net.cpp:150] Setting up Block3_relu1
I0724 17:07:18.742578 18690 net.cpp:157] Top shape: 5 128 128 128 (10485760)
I0724 17:07:18.742581 18690 net.cpp:165] Memory required for data: 4288675880
I0724 17:07:18.742586 18690 layer_factory.hpp:77] Creating layer Block3_conv1
I0724 17:07:18.742597 18690 net.cpp:106] Creating Layer Block3_conv1
I0724 17:07:18.742601 18690 net.cpp:454] Block3_conv1 <- Block3_bn1
I0724 17:07:18.742610 18690 net.cpp:411] Block3_conv1 -> Block3_conv1
I0724 17:07:18.746726 18690 net.cpp:150] Setting up Block3_conv1
I0724 17:07:18.746743 18690 net.cpp:157] Top shape: 5 12 128 128 (983040)
I0724 17:07:18.746747 18690 net.cpp:165] Memory required for data: 4292608040
I0724 17:07:18.746755 18690 layer_factory.hpp:77] Creating layer Block3_conv1_Block3_conv1_0_split
I0724 17:07:18.746765 18690 net.cpp:106] Creating Layer Block3_conv1_Block3_conv1_0_split
I0724 17:07:18.746770 18690 net.cpp:454] Block3_conv1_Block3_conv1_0_split <- Block3_conv1
I0724 17:07:18.746776 18690 net.cpp:411] Block3_conv1_Block3_conv1_0_split -> Block3_conv1_Block3_conv1_0_split_0
I0724 17:07:18.746786 18690 net.cpp:411] Block3_conv1_Block3_conv1_0_split -> Block3_conv1_Block3_conv1_0_split_1
I0724 17:07:18.746794 18690 net.cpp:411] Block3_conv1_Block3_conv1_0_split -> Block3_conv1_Block3_conv1_0_split_2
I0724 17:07:18.746800 18690 net.cpp:411] Block3_conv1_Block3_conv1_0_split -> Block3_conv1_Block3_conv1_0_split_3
I0724 17:07:18.746806 18690 net.cpp:411] Block3_conv1_Block3_conv1_0_split -> Block3_conv1_Block3_conv1_0_split_4
I0724 17:07:18.746902 18690 net.cpp:150] Setting up Block3_conv1_Block3_conv1_0_split
I0724 17:07:18.746914 18690 net.cpp:157] Top shape: 5 12 128 128 (983040)
I0724 17:07:18.746919 18690 net.cpp:157] Top shape: 5 12 128 128 (983040)
I0724 17:07:18.746923 18690 net.cpp:157] Top shape: 5 12 128 128 (983040)
I0724 17:07:18.746928 18690 net.cpp:157] Top shape: 5 12 128 128 (983040)
I0724 17:07:18.746934 18690 net.cpp:157] Top shape: 5 12 128 128 (983040)
I0724 17:07:18.746938 18690 net.cpp:165] Memory required for data: 4312268840
I0724 17:07:18.746956 18690 layer_factory.hpp:77] Creating layer Block3_bn2
I0724 17:07:18.746966 18690 net.cpp:106] Creating Layer Block3_bn2
I0724 17:07:18.746971 18690 net.cpp:454] Block3_bn2 <- Block3_conv1_Block3_conv1_0_split_0
I0724 17:07:18.746979 18690 net.cpp:411] Block3_bn2 -> Block3_bn2
I0724 17:07:18.747249 18690 net.cpp:150] Setting up Block3_bn2
I0724 17:07:18.747259 18690 net.cpp:157] Top shape: 5 12 128 128 (983040)
I0724 17:07:18.747263 18690 net.cpp:165] Memory required for data: 4316201000
I0724 17:07:18.747272 18690 layer_factory.hpp:77] Creating layer Block3_relu2
I0724 17:07:18.747277 18690 net.cpp:106] Creating Layer Block3_relu2
I0724 17:07:18.747282 18690 net.cpp:454] Block3_relu2 <- Block3_bn2
I0724 17:07:18.747289 18690 net.cpp:397] Block3_relu2 -> Block3_bn2 (in-place)
I0724 17:07:18.748404 18690 net.cpp:150] Setting up Block3_relu2
I0724 17:07:18.748425 18690 net.cpp:157] Top shape: 5 12 128 128 (983040)
I0724 17:07:18.748440 18690 net.cpp:165] Memory required for data: 4320133160
I0724 17:07:18.748446 18690 layer_factory.hpp:77] Creating layer Block3_conv2
I0724 17:07:18.748458 18690 net.cpp:106] Creating Layer Block3_conv2
I0724 17:07:18.748463 18690 net.cpp:454] Block3_conv2 <- Block3_bn2
I0724 17:07:18.748471 18690 net.cpp:411] Block3_conv2 -> Block3_conv2
I0724 17:07:18.751699 18690 net.cpp:150] Setting up Block3_conv2
I0724 17:07:18.751716 18690 net.cpp:157] Top shape: 5 12 128 128 (983040)
I0724 17:07:18.751720 18690 net.cpp:165] Memory required for data: 4324065320
I0724 17:07:18.751729 18690 layer_factory.hpp:77] Creating layer Block3_conv2_Block3_conv2_0_split
I0724 17:07:18.751749 18690 net.cpp:106] Creating Layer Block3_conv2_Block3_conv2_0_split
I0724 17:07:18.751754 18690 net.cpp:454] Block3_conv2_Block3_conv2_0_split <- Block3_conv2
I0724 17:07:18.751765 18690 net.cpp:411] Block3_conv2_Block3_conv2_0_split -> Block3_conv2_Block3_conv2_0_split_0
I0724 17:07:18.751775 18690 net.cpp:411] Block3_conv2_Block3_conv2_0_split -> Block3_conv2_Block3_conv2_0_split_1
I0724 17:07:18.751782 18690 net.cpp:411] Block3_conv2_Block3_conv2_0_split -> Block3_conv2_Block3_conv2_0_split_2
I0724 17:07:18.751793 18690 net.cpp:411] Block3_conv2_Block3_conv2_0_split -> Block3_conv2_Block3_conv2_0_split_3
I0724 17:07:18.751976 18690 net.cpp:150] Setting up Block3_conv2_Block3_conv2_0_split
I0724 17:07:18.751988 18690 net.cpp:157] Top shape: 5 12 128 128 (983040)
I0724 17:07:18.751994 18690 net.cpp:157] Top shape: 5 12 128 128 (983040)
I0724 17:07:18.751998 18690 net.cpp:157] Top shape: 5 12 128 128 (983040)
I0724 17:07:18.752003 18690 net.cpp:157] Top shape: 5 12 128 128 (983040)
I0724 17:07:18.752007 18690 net.cpp:165] Memory required for data: 4339793960
I0724 17:07:18.752010 18690 layer_factory.hpp:77] Creating layer Block3_cat1
I0724 17:07:18.752017 18690 net.cpp:106] Creating Layer Block3_cat1
I0724 17:07:18.752022 18690 net.cpp:454] Block3_cat1 <- Block3_conv1_Block3_conv1_0_split_1
I0724 17:07:18.752027 18690 net.cpp:454] Block3_cat1 <- Block3_conv2_Block3_conv2_0_split_0
I0724 17:07:18.752034 18690 net.cpp:411] Block3_cat1 -> Block3_cat1
I0724 17:07:18.752074 18690 net.cpp:150] Setting up Block3_cat1
I0724 17:07:18.752082 18690 net.cpp:157] Top shape: 5 24 128 128 (1966080)
I0724 17:07:18.752086 18690 net.cpp:165] Memory required for data: 4347658280
I0724 17:07:18.752090 18690 layer_factory.hpp:77] Creating layer Block3_bn3
I0724 17:07:18.752111 18690 net.cpp:106] Creating Layer Block3_bn3
I0724 17:07:18.752117 18690 net.cpp:454] Block3_bn3 <- Block3_cat1
I0724 17:07:18.752125 18690 net.cpp:411] Block3_bn3 -> Block3_bn3
I0724 17:07:18.752403 18690 net.cpp:150] Setting up Block3_bn3
I0724 17:07:18.752411 18690 net.cpp:157] Top shape: 5 24 128 128 (1966080)
I0724 17:07:18.752415 18690 net.cpp:165] Memory required for data: 4355522600
I0724 17:07:18.752424 18690 layer_factory.hpp:77] Creating layer Block3_relu3
I0724 17:07:18.752430 18690 net.cpp:106] Creating Layer Block3_relu3
I0724 17:07:18.752434 18690 net.cpp:454] Block3_relu3 <- Block3_bn3
I0724 17:07:18.752441 18690 net.cpp:397] Block3_relu3 -> Block3_bn3 (in-place)
I0724 17:07:18.753792 18690 net.cpp:150] Setting up Block3_relu3
I0724 17:07:18.753809 18690 net.cpp:157] Top shape: 5 24 128 128 (1966080)
I0724 17:07:18.753813 18690 net.cpp:165] Memory required for data: 4363386920
I0724 17:07:18.753829 18690 layer_factory.hpp:77] Creating layer Block3_conv3
I0724 17:07:18.753841 18690 net.cpp:106] Creating Layer Block3_conv3
I0724 17:07:18.753846 18690 net.cpp:454] Block3_conv3 <- Block3_bn3
I0724 17:07:18.753855 18690 net.cpp:411] Block3_conv3 -> Block3_conv3
I0724 17:07:18.756446 18690 net.cpp:150] Setting up Block3_conv3
I0724 17:07:18.756464 18690 net.cpp:157] Top shape: 5 12 128 128 (983040)
I0724 17:07:18.756469 18690 net.cpp:165] Memory required for data: 4367319080
I0724 17:07:18.756477 18690 layer_factory.hpp:77] Creating layer Block3_conv3_Block3_conv3_0_split
I0724 17:07:18.756484 18690 net.cpp:106] Creating Layer Block3_conv3_Block3_conv3_0_split
I0724 17:07:18.756501 18690 net.cpp:454] Block3_conv3_Block3_conv3_0_split <- Block3_conv3
I0724 17:07:18.756723 18690 net.cpp:411] Block3_conv3_Block3_conv3_0_split -> Block3_conv3_Block3_conv3_0_split_0
I0724 17:07:18.756738 18690 net.cpp:411] Block3_conv3_Block3_conv3_0_split -> Block3_conv3_Block3_conv3_0_split_1
I0724 17:07:18.756745 18690 net.cpp:411] Block3_conv3_Block3_conv3_0_split -> Block3_conv3_Block3_conv3_0_split_2
I0724 17:07:18.756817 18690 net.cpp:150] Setting up Block3_conv3_Block3_conv3_0_split
I0724 17:07:18.756829 18690 net.cpp:157] Top shape: 5 12 128 128 (983040)
I0724 17:07:18.756834 18690 net.cpp:157] Top shape: 5 12 128 128 (983040)
I0724 17:07:18.756837 18690 net.cpp:157] Top shape: 5 12 128 128 (983040)
I0724 17:07:18.756840 18690 net.cpp:165] Memory required for data: 4379115560
I0724 17:07:18.756845 18690 layer_factory.hpp:77] Creating layer Block3_cat2
I0724 17:07:18.756863 18690 net.cpp:106] Creating Layer Block3_cat2
I0724 17:07:18.756867 18690 net.cpp:454] Block3_cat2 <- Block3_conv1_Block3_conv1_0_split_2
I0724 17:07:18.756872 18690 net.cpp:454] Block3_cat2 <- Block3_conv2_Block3_conv2_0_split_1
I0724 17:07:18.756877 18690 net.cpp:454] Block3_cat2 <- Block3_conv3_Block3_conv3_0_split_0
I0724 17:07:18.756884 18690 net.cpp:411] Block3_cat2 -> Block3_cat2
I0724 17:07:18.756918 18690 net.cpp:150] Setting up Block3_cat2
I0724 17:07:18.756927 18690 net.cpp:157] Top shape: 5 36 128 128 (2949120)
I0724 17:07:18.756930 18690 net.cpp:165] Memory required for data: 4390912040
I0724 17:07:18.756934 18690 layer_factory.hpp:77] Creating layer Block3_bn4
I0724 17:07:18.756940 18690 net.cpp:106] Creating Layer Block3_bn4
I0724 17:07:18.756944 18690 net.cpp:454] Block3_bn4 <- Block3_cat2
I0724 17:07:18.756953 18690 net.cpp:411] Block3_bn4 -> Block3_bn4
I0724 17:07:18.757294 18690 net.cpp:150] Setting up Block3_bn4
I0724 17:07:18.757305 18690 net.cpp:157] Top shape: 5 36 128 128 (2949120)
I0724 17:07:18.757308 18690 net.cpp:165] Memory required for data: 4402708520
I0724 17:07:18.757318 18690 layer_factory.hpp:77] Creating layer Block3_relu4
I0724 17:07:18.757323 18690 net.cpp:106] Creating Layer Block3_relu4
I0724 17:07:18.757328 18690 net.cpp:454] Block3_relu4 <- Block3_bn4
I0724 17:07:18.757334 18690 net.cpp:397] Block3_relu4 -> Block3_bn4 (in-place)
I0724 17:07:18.758546 18690 net.cpp:150] Setting up Block3_relu4
I0724 17:07:18.758564 18690 net.cpp:157] Top shape: 5 36 128 128 (2949120)
I0724 17:07:18.758569 18690 net.cpp:165] Memory required for data: 4414505000
I0724 17:07:18.758574 18690 layer_factory.hpp:77] Creating layer Block3_conv4
I0724 17:07:18.758596 18690 net.cpp:106] Creating Layer Block3_conv4
I0724 17:07:18.758602 18690 net.cpp:454] Block3_conv4 <- Block3_bn4
I0724 17:07:18.758610 18690 net.cpp:411] Block3_conv4 -> Block3_conv4
I0724 17:07:18.762840 18690 net.cpp:150] Setting up Block3_conv4
I0724 17:07:18.762859 18690 net.cpp:157] Top shape: 5 12 128 128 (983040)
I0724 17:07:18.762863 18690 net.cpp:165] Memory required for data: 4418437160
I0724 17:07:18.762871 18690 layer_factory.hpp:77] Creating layer Block3_conv4_Block3_conv4_0_split
I0724 17:07:18.762878 18690 net.cpp:106] Creating Layer Block3_conv4_Block3_conv4_0_split
I0724 17:07:18.762883 18690 net.cpp:454] Block3_conv4_Block3_conv4_0_split <- Block3_conv4
I0724 17:07:18.762893 18690 net.cpp:411] Block3_conv4_Block3_conv4_0_split -> Block3_conv4_Block3_conv4_0_split_0
I0724 17:07:18.762902 18690 net.cpp:411] Block3_conv4_Block3_conv4_0_split -> Block3_conv4_Block3_conv4_0_split_1
I0724 17:07:18.762958 18690 net.cpp:150] Setting up Block3_conv4_Block3_conv4_0_split
I0724 17:07:18.762967 18690 net.cpp:157] Top shape: 5 12 128 128 (983040)
I0724 17:07:18.762972 18690 net.cpp:157] Top shape: 5 12 128 128 (983040)
I0724 17:07:18.762975 18690 net.cpp:165] Memory required for data: 4426301480
I0724 17:07:18.762979 18690 layer_factory.hpp:77] Creating layer Block3_cat3
I0724 17:07:18.762986 18690 net.cpp:106] Creating Layer Block3_cat3
I0724 17:07:18.762990 18690 net.cpp:454] Block3_cat3 <- Block3_conv1_Block3_conv1_0_split_3
I0724 17:07:18.763007 18690 net.cpp:454] Block3_cat3 <- Block3_conv2_Block3_conv2_0_split_2
I0724 17:07:18.763021 18690 net.cpp:454] Block3_cat3 <- Block3_conv3_Block3_conv3_0_split_1
I0724 17:07:18.763026 18690 net.cpp:454] Block3_cat3 <- Block3_conv4_Block3_conv4_0_split_0
I0724 17:07:18.763031 18690 net.cpp:411] Block3_cat3 -> Block3_cat3
I0724 17:07:18.763068 18690 net.cpp:150] Setting up Block3_cat3
I0724 17:07:18.763077 18690 net.cpp:157] Top shape: 5 48 128 128 (3932160)
I0724 17:07:18.763082 18690 net.cpp:165] Memory required for data: 4442030120
I0724 17:07:18.763085 18690 layer_factory.hpp:77] Creating layer Block3_bn5
I0724 17:07:18.763097 18690 net.cpp:106] Creating Layer Block3_bn5
I0724 17:07:18.763101 18690 net.cpp:454] Block3_bn5 <- Block3_cat3
I0724 17:07:18.763108 18690 net.cpp:411] Block3_bn5 -> Block3_bn5
I0724 17:07:18.763411 18690 net.cpp:150] Setting up Block3_bn5
I0724 17:07:18.763422 18690 net.cpp:157] Top shape: 5 48 128 128 (3932160)
I0724 17:07:18.763424 18690 net.cpp:165] Memory required for data: 4457758760
I0724 17:07:18.763443 18690 layer_factory.hpp:77] Creating layer Block3_relu5
I0724 17:07:18.763450 18690 net.cpp:106] Creating Layer Block3_relu5
I0724 17:07:18.763454 18690 net.cpp:454] Block3_relu5 <- Block3_bn5
I0724 17:07:18.763459 18690 net.cpp:397] Block3_relu5 -> Block3_bn5 (in-place)
I0724 17:07:18.763957 18690 net.cpp:150] Setting up Block3_relu5
I0724 17:07:18.763990 18690 net.cpp:157] Top shape: 5 48 128 128 (3932160)
I0724 17:07:18.763994 18690 net.cpp:165] Memory required for data: 4473487400
I0724 17:07:18.763998 18690 layer_factory.hpp:77] Creating layer Block3_conv5
I0724 17:07:18.764010 18690 net.cpp:106] Creating Layer Block3_conv5
I0724 17:07:18.764014 18690 net.cpp:454] Block3_conv5 <- Block3_bn5
I0724 17:07:18.764021 18690 net.cpp:411] Block3_conv5 -> Block3_conv5
I0724 17:07:18.766049 18690 net.cpp:150] Setting up Block3_conv5
I0724 17:07:18.766067 18690 net.cpp:157] Top shape: 5 12 128 128 (983040)
I0724 17:07:18.766070 18690 net.cpp:165] Memory required for data: 4477419560
I0724 17:07:18.766077 18690 layer_factory.hpp:77] Creating layer Block3_cat4
I0724 17:07:18.766085 18690 net.cpp:106] Creating Layer Block3_cat4
I0724 17:07:18.766089 18690 net.cpp:454] Block3_cat4 <- Block3_conv1_Block3_conv1_0_split_4
I0724 17:07:18.766325 18690 net.cpp:454] Block3_cat4 <- Block3_conv2_Block3_conv2_0_split_3
I0724 17:07:18.766355 18690 net.cpp:454] Block3_cat4 <- Block3_conv3_Block3_conv3_0_split_2
I0724 17:07:18.766358 18690 net.cpp:454] Block3_cat4 <- Block3_conv4_Block3_conv4_0_split_1
I0724 17:07:18.766363 18690 net.cpp:454] Block3_cat4 <- Block3_conv5
I0724 17:07:18.766369 18690 net.cpp:411] Block3_cat4 -> Block3_cat4
I0724 17:07:18.766415 18690 net.cpp:150] Setting up Block3_cat4
I0724 17:07:18.766427 18690 net.cpp:157] Top shape: 5 60 128 128 (4915200)
I0724 17:07:18.766432 18690 net.cpp:165] Memory required for data: 4497080360
I0724 17:07:18.766445 18690 layer_factory.hpp:77] Creating layer transition3_bn1
I0724 17:07:18.766455 18690 net.cpp:106] Creating Layer transition3_bn1
I0724 17:07:18.766459 18690 net.cpp:454] transition3_bn1 <- Block3_cat4
I0724 17:07:18.766466 18690 net.cpp:411] transition3_bn1 -> transition3_bn1
I0724 17:07:18.766757 18690 net.cpp:150] Setting up transition3_bn1
I0724 17:07:18.766767 18690 net.cpp:157] Top shape: 5 60 128 128 (4915200)
I0724 17:07:18.766769 18690 net.cpp:165] Memory required for data: 4516741160
I0724 17:07:18.766778 18690 layer_factory.hpp:77] Creating layer transition3_conv1
I0724 17:07:18.766790 18690 net.cpp:106] Creating Layer transition3_conv1
I0724 17:07:18.766794 18690 net.cpp:454] transition3_conv1 <- transition3_bn1
I0724 17:07:18.766800 18690 net.cpp:411] transition3_conv1 -> transition3_conv1
I0724 17:07:18.768831 18690 net.cpp:150] Setting up transition3_conv1
I0724 17:07:18.768851 18690 net.cpp:157] Top shape: 5 128 128 128 (10485760)
I0724 17:07:18.768854 18690 net.cpp:165] Memory required for data: 4558684200
I0724 17:07:18.768862 18690 layer_factory.hpp:77] Creating layer transition3_average
I0724 17:07:18.768882 18690 net.cpp:106] Creating Layer transition3_average
I0724 17:07:18.768887 18690 net.cpp:454] transition3_average <- transition3_conv1
I0724 17:07:18.768895 18690 net.cpp:411] transition3_average -> transition3_average
I0724 17:07:18.768949 18690 net.cpp:150] Setting up transition3_average
I0724 17:07:18.768961 18690 net.cpp:157] Top shape: 5 128 64 64 (2621440)
I0724 17:07:18.768965 18690 net.cpp:165] Memory required for data: 4569169960
I0724 17:07:18.768968 18690 layer_factory.hpp:77] Creating layer Block4_bn1
I0724 17:07:18.768985 18690 net.cpp:106] Creating Layer Block4_bn1
I0724 17:07:18.768990 18690 net.cpp:454] Block4_bn1 <- transition3_average
I0724 17:07:18.768997 18690 net.cpp:411] Block4_bn1 -> Block4_bn1
I0724 17:07:18.769244 18690 net.cpp:150] Setting up Block4_bn1
I0724 17:07:18.769254 18690 net.cpp:157] Top shape: 5 128 64 64 (2621440)
I0724 17:07:18.769258 18690 net.cpp:165] Memory required for data: 4579655720
I0724 17:07:18.769268 18690 layer_factory.hpp:77] Creating layer Block4_relu1
I0724 17:07:18.769273 18690 net.cpp:106] Creating Layer Block4_relu1
I0724 17:07:18.769276 18690 net.cpp:454] Block4_relu1 <- Block4_bn1
I0724 17:07:18.769282 18690 net.cpp:397] Block4_relu1 -> Block4_bn1 (in-place)
I0724 17:07:18.769927 18690 net.cpp:150] Setting up Block4_relu1
I0724 17:07:18.769944 18690 net.cpp:157] Top shape: 5 128 64 64 (2621440)
I0724 17:07:18.769948 18690 net.cpp:165] Memory required for data: 4590141480
I0724 17:07:18.769953 18690 layer_factory.hpp:77] Creating layer Block4_conv1
I0724 17:07:18.769963 18690 net.cpp:106] Creating Layer Block4_conv1
I0724 17:07:18.769968 18690 net.cpp:454] Block4_conv1 <- Block4_bn1
I0724 17:07:18.769976 18690 net.cpp:411] Block4_conv1 -> Block4_conv1
I0724 17:07:18.772063 18690 net.cpp:150] Setting up Block4_conv1
I0724 17:07:18.772079 18690 net.cpp:157] Top shape: 5 18 64 64 (368640)
I0724 17:07:18.772083 18690 net.cpp:165] Memory required for data: 4591616040
I0724 17:07:18.772091 18690 layer_factory.hpp:77] Creating layer Block4_conv1_Block4_conv1_0_split
I0724 17:07:18.772102 18690 net.cpp:106] Creating Layer Block4_conv1_Block4_conv1_0_split
I0724 17:07:18.772107 18690 net.cpp:454] Block4_conv1_Block4_conv1_0_split <- Block4_conv1
I0724 17:07:18.772115 18690 net.cpp:411] Block4_conv1_Block4_conv1_0_split -> Block4_conv1_Block4_conv1_0_split_0
I0724 17:07:18.772123 18690 net.cpp:411] Block4_conv1_Block4_conv1_0_split -> Block4_conv1_Block4_conv1_0_split_1
I0724 17:07:18.772131 18690 net.cpp:411] Block4_conv1_Block4_conv1_0_split -> Block4_conv1_Block4_conv1_0_split_2
I0724 17:07:18.772140 18690 net.cpp:411] Block4_conv1_Block4_conv1_0_split -> Block4_conv1_Block4_conv1_0_split_3
I0724 17:07:18.772146 18690 net.cpp:411] Block4_conv1_Block4_conv1_0_split -> Block4_conv1_Block4_conv1_0_split_4
I0724 17:07:18.772234 18690 net.cpp:150] Setting up Block4_conv1_Block4_conv1_0_split
I0724 17:07:18.772244 18690 net.cpp:157] Top shape: 5 18 64 64 (368640)
I0724 17:07:18.772249 18690 net.cpp:157] Top shape: 5 18 64 64 (368640)
I0724 17:07:18.772253 18690 net.cpp:157] Top shape: 5 18 64 64 (368640)
I0724 17:07:18.772258 18690 net.cpp:157] Top shape: 5 18 64 64 (368640)
I0724 17:07:18.772262 18690 net.cpp:157] Top shape: 5 18 64 64 (368640)
I0724 17:07:18.772266 18690 net.cpp:165] Memory required for data: 4598988840
I0724 17:07:18.772279 18690 layer_factory.hpp:77] Creating layer Block4_bn2
I0724 17:07:18.772287 18690 net.cpp:106] Creating Layer Block4_bn2
I0724 17:07:18.772294 18690 net.cpp:454] Block4_bn2 <- Block4_conv1_Block4_conv1_0_split_0
I0724 17:07:18.772302 18690 net.cpp:411] Block4_bn2 -> Block4_bn2
I0724 17:07:18.772555 18690 net.cpp:150] Setting up Block4_bn2
I0724 17:07:18.772564 18690 net.cpp:157] Top shape: 5 18 64 64 (368640)
I0724 17:07:18.772568 18690 net.cpp:165] Memory required for data: 4600463400
I0724 17:07:18.772577 18690 layer_factory.hpp:77] Creating layer Block4_relu2
I0724 17:07:18.772584 18690 net.cpp:106] Creating Layer Block4_relu2
I0724 17:07:18.772588 18690 net.cpp:454] Block4_relu2 <- Block4_bn2
I0724 17:07:18.772606 18690 net.cpp:397] Block4_relu2 -> Block4_bn2 (in-place)
I0724 17:07:18.773079 18690 net.cpp:150] Setting up Block4_relu2
I0724 17:07:18.773092 18690 net.cpp:157] Top shape: 5 18 64 64 (368640)
I0724 17:07:18.773095 18690 net.cpp:165] Memory required for data: 4601937960
I0724 17:07:18.773099 18690 layer_factory.hpp:77] Creating layer Block4_conv2
I0724 17:07:18.773110 18690 net.cpp:106] Creating Layer Block4_conv2
I0724 17:07:18.773114 18690 net.cpp:454] Block4_conv2 <- Block4_bn2
I0724 17:07:18.773123 18690 net.cpp:411] Block4_conv2 -> Block4_conv2
I0724 17:07:18.775233 18690 net.cpp:150] Setting up Block4_conv2
I0724 17:07:18.775250 18690 net.cpp:157] Top shape: 5 18 64 64 (368640)
I0724 17:07:18.775254 18690 net.cpp:165] Memory required for data: 4603412520
I0724 17:07:18.775270 18690 layer_factory.hpp:77] Creating layer Block4_conv2_Block4_conv2_0_split
I0724 17:07:18.775279 18690 net.cpp:106] Creating Layer Block4_conv2_Block4_conv2_0_split
I0724 17:07:18.775283 18690 net.cpp:454] Block4_conv2_Block4_conv2_0_split <- Block4_conv2
I0724 17:07:18.775292 18690 net.cpp:411] Block4_conv2_Block4_conv2_0_split -> Block4_conv2_Block4_conv2_0_split_0
I0724 17:07:18.775300 18690 net.cpp:411] Block4_conv2_Block4_conv2_0_split -> Block4_conv2_Block4_conv2_0_split_1
I0724 17:07:18.775307 18690 net.cpp:411] Block4_conv2_Block4_conv2_0_split -> Block4_conv2_Block4_conv2_0_split_2
I0724 17:07:18.775315 18690 net.cpp:411] Block4_conv2_Block4_conv2_0_split -> Block4_conv2_Block4_conv2_0_split_3
I0724 17:07:18.775403 18690 net.cpp:150] Setting up Block4_conv2_Block4_conv2_0_split
I0724 17:07:18.775411 18690 net.cpp:157] Top shape: 5 18 64 64 (368640)
I0724 17:07:18.775416 18690 net.cpp:157] Top shape: 5 18 64 64 (368640)
I0724 17:07:18.775420 18690 net.cpp:157] Top shape: 5 18 64 64 (368640)
I0724 17:07:18.775424 18690 net.cpp:157] Top shape: 5 18 64 64 (368640)
I0724 17:07:18.775427 18690 net.cpp:165] Memory required for data: 4609310760
I0724 17:07:18.775434 18690 layer_factory.hpp:77] Creating layer Block4_cat1
I0724 17:07:18.775441 18690 net.cpp:106] Creating Layer Block4_cat1
I0724 17:07:18.775447 18690 net.cpp:454] Block4_cat1 <- Block4_conv1_Block4_conv1_0_split_1
I0724 17:07:18.775452 18690 net.cpp:454] Block4_cat1 <- Block4_conv2_Block4_conv2_0_split_0
I0724 17:07:18.775460 18690 net.cpp:411] Block4_cat1 -> Block4_cat1
I0724 17:07:18.775490 18690 net.cpp:150] Setting up Block4_cat1
I0724 17:07:18.775497 18690 net.cpp:157] Top shape: 5 36 64 64 (737280)
I0724 17:07:18.775501 18690 net.cpp:165] Memory required for data: 4612259880
I0724 17:07:18.775504 18690 layer_factory.hpp:77] Creating layer Block4_bn3
I0724 17:07:18.775516 18690 net.cpp:106] Creating Layer Block4_bn3
I0724 17:07:18.775519 18690 net.cpp:454] Block4_bn3 <- Block4_cat1
I0724 17:07:18.775526 18690 net.cpp:411] Block4_bn3 -> Block4_bn3
I0724 17:07:18.775786 18690 net.cpp:150] Setting up Block4_bn3
I0724 17:07:18.775795 18690 net.cpp:157] Top shape: 5 36 64 64 (737280)
I0724 17:07:18.775799 18690 net.cpp:165] Memory required for data: 4615209000
I0724 17:07:18.775815 18690 layer_factory.hpp:77] Creating layer Block4_relu3
I0724 17:07:18.775821 18690 net.cpp:106] Creating Layer Block4_relu3
I0724 17:07:18.775825 18690 net.cpp:454] Block4_relu3 <- Block4_bn3
I0724 17:07:18.775830 18690 net.cpp:397] Block4_relu3 -> Block4_bn3 (in-place)
I0724 17:07:18.776314 18690 net.cpp:150] Setting up Block4_relu3
I0724 17:07:18.776326 18690 net.cpp:157] Top shape: 5 36 64 64 (737280)
I0724 17:07:18.776330 18690 net.cpp:165] Memory required for data: 4618158120
I0724 17:07:18.776335 18690 layer_factory.hpp:77] Creating layer Block4_conv3
I0724 17:07:18.776345 18690 net.cpp:106] Creating Layer Block4_conv3
I0724 17:07:18.776350 18690 net.cpp:454] Block4_conv3 <- Block4_bn3
I0724 17:07:18.776356 18690 net.cpp:411] Block4_conv3 -> Block4_conv3
I0724 17:07:18.778311 18690 net.cpp:150] Setting up Block4_conv3
I0724 17:07:18.778326 18690 net.cpp:157] Top shape: 5 18 64 64 (368640)
I0724 17:07:18.778331 18690 net.cpp:165] Memory required for data: 4619632680
I0724 17:07:18.778372 18690 layer_factory.hpp:77] Creating layer Block4_conv3_Block4_conv3_0_split
I0724 17:07:18.778380 18690 net.cpp:106] Creating Layer Block4_conv3_Block4_conv3_0_split
I0724 17:07:18.778384 18690 net.cpp:454] Block4_conv3_Block4_conv3_0_split <- Block4_conv3
I0724 17:07:18.778391 18690 net.cpp:411] Block4_conv3_Block4_conv3_0_split -> Block4_conv3_Block4_conv3_0_split_0
I0724 17:07:18.778400 18690 net.cpp:411] Block4_conv3_Block4_conv3_0_split -> Block4_conv3_Block4_conv3_0_split_1
I0724 17:07:18.778407 18690 net.cpp:411] Block4_conv3_Block4_conv3_0_split -> Block4_conv3_Block4_conv3_0_split_2
I0724 17:07:18.778478 18690 net.cpp:150] Setting up Block4_conv3_Block4_conv3_0_split
I0724 17:07:18.778489 18690 net.cpp:157] Top shape: 5 18 64 64 (368640)
I0724 17:07:18.778494 18690 net.cpp:157] Top shape: 5 18 64 64 (368640)
I0724 17:07:18.778498 18690 net.cpp:157] Top shape: 5 18 64 64 (368640)
I0724 17:07:18.778501 18690 net.cpp:165] Memory required for data: 4624056360
I0724 17:07:18.778517 18690 layer_factory.hpp:77] Creating layer Block4_cat2
I0724 17:07:18.778527 18690 net.cpp:106] Creating Layer Block4_cat2
I0724 17:07:18.778537 18690 net.cpp:454] Block4_cat2 <- Block4_conv1_Block4_conv1_0_split_2
I0724 17:07:18.778542 18690 net.cpp:454] Block4_cat2 <- Block4_conv2_Block4_conv2_0_split_1
I0724 17:07:18.778548 18690 net.cpp:454] Block4_cat2 <- Block4_conv3_Block4_conv3_0_split_0
I0724 17:07:18.778555 18690 net.cpp:411] Block4_cat2 -> Block4_cat2
I0724 17:07:18.778591 18690 net.cpp:150] Setting up Block4_cat2
I0724 17:07:18.778600 18690 net.cpp:157] Top shape: 5 54 64 64 (1105920)
I0724 17:07:18.778604 18690 net.cpp:165] Memory required for data: 4628480040
I0724 17:07:18.778609 18690 layer_factory.hpp:77] Creating layer Block4_bn4
I0724 17:07:18.778620 18690 net.cpp:106] Creating Layer Block4_bn4
I0724 17:07:18.778627 18690 net.cpp:454] Block4_bn4 <- Block4_cat2
I0724 17:07:18.778635 18690 net.cpp:411] Block4_bn4 -> Block4_bn4
I0724 17:07:18.778908 18690 net.cpp:150] Setting up Block4_bn4
I0724 17:07:18.778918 18690 net.cpp:157] Top shape: 5 54 64 64 (1105920)
I0724 17:07:18.778920 18690 net.cpp:165] Memory required for data: 4632903720
I0724 17:07:18.778929 18690 layer_factory.hpp:77] Creating layer Block4_relu4
I0724 17:07:18.778935 18690 net.cpp:106] Creating Layer Block4_relu4
I0724 17:07:18.778939 18690 net.cpp:454] Block4_relu4 <- Block4_bn4
I0724 17:07:18.778944 18690 net.cpp:397] Block4_relu4 -> Block4_bn4 (in-place)
I0724 17:07:18.779417 18690 net.cpp:150] Setting up Block4_relu4
I0724 17:07:18.779429 18690 net.cpp:157] Top shape: 5 54 64 64 (1105920)
I0724 17:07:18.779433 18690 net.cpp:165] Memory required for data: 4637327400
I0724 17:07:18.779444 18690 layer_factory.hpp:77] Creating layer Block4_conv4
I0724 17:07:18.779455 18690 net.cpp:106] Creating Layer Block4_conv4
I0724 17:07:18.779460 18690 net.cpp:454] Block4_conv4 <- Block4_bn4
I0724 17:07:18.779466 18690 net.cpp:411] Block4_conv4 -> Block4_conv4
I0724 17:07:18.781491 18690 net.cpp:150] Setting up Block4_conv4
I0724 17:07:18.781508 18690 net.cpp:157] Top shape: 5 18 64 64 (368640)
I0724 17:07:18.781512 18690 net.cpp:165] Memory required for data: 4638801960
I0724 17:07:18.781519 18690 layer_factory.hpp:77] Creating layer Block4_conv4_Block4_conv4_0_split
I0724 17:07:18.781528 18690 net.cpp:106] Creating Layer Block4_conv4_Block4_conv4_0_split
I0724 17:07:18.781533 18690 net.cpp:454] Block4_conv4_Block4_conv4_0_split <- Block4_conv4
I0724 17:07:18.781540 18690 net.cpp:411] Block4_conv4_Block4_conv4_0_split -> Block4_conv4_Block4_conv4_0_split_0
I0724 17:07:18.781548 18690 net.cpp:411] Block4_conv4_Block4_conv4_0_split -> Block4_conv4_Block4_conv4_0_split_1
I0724 17:07:18.781599 18690 net.cpp:150] Setting up Block4_conv4_Block4_conv4_0_split
I0724 17:07:18.781608 18690 net.cpp:157] Top shape: 5 18 64 64 (368640)
I0724 17:07:18.781613 18690 net.cpp:157] Top shape: 5 18 64 64 (368640)
I0724 17:07:18.781616 18690 net.cpp:165] Memory required for data: 4641751080
I0724 17:07:18.781620 18690 layer_factory.hpp:77] Creating layer Block4_cat3
I0724 17:07:18.781642 18690 net.cpp:106] Creating Layer Block4_cat3
I0724 17:07:18.781647 18690 net.cpp:454] Block4_cat3 <- Block4_conv1_Block4_conv1_0_split_3
I0724 17:07:18.781652 18690 net.cpp:454] Block4_cat3 <- Block4_conv2_Block4_conv2_0_split_2
I0724 17:07:18.781656 18690 net.cpp:454] Block4_cat3 <- Block4_conv3_Block4_conv3_0_split_1
I0724 17:07:18.781661 18690 net.cpp:454] Block4_cat3 <- Block4_conv4_Block4_conv4_0_split_0
I0724 17:07:18.781666 18690 net.cpp:411] Block4_cat3 -> Block4_cat3
I0724 17:07:18.781698 18690 net.cpp:150] Setting up Block4_cat3
I0724 17:07:18.781708 18690 net.cpp:157] Top shape: 5 72 64 64 (1474560)
I0724 17:07:18.781711 18690 net.cpp:165] Memory required for data: 4647649320
I0724 17:07:18.781714 18690 layer_factory.hpp:77] Creating layer Block4_bn5
I0724 17:07:18.781733 18690 net.cpp:106] Creating Layer Block4_bn5
I0724 17:07:18.781738 18690 net.cpp:454] Block4_bn5 <- Block4_cat3
I0724 17:07:18.781747 18690 net.cpp:411] Block4_bn5 -> Block4_bn5
I0724 17:07:18.782002 18690 net.cpp:150] Setting up Block4_bn5
I0724 17:07:18.782011 18690 net.cpp:157] Top shape: 5 72 64 64 (1474560)
I0724 17:07:18.782016 18690 net.cpp:165] Memory required for data: 4653547560
I0724 17:07:18.782023 18690 layer_factory.hpp:77] Creating layer Block4_relu5
I0724 17:07:18.782028 18690 net.cpp:106] Creating Layer Block4_relu5
I0724 17:07:18.782032 18690 net.cpp:454] Block4_relu5 <- Block4_bn5
I0724 17:07:18.782039 18690 net.cpp:397] Block4_relu5 -> Block4_bn5 (in-place)
I0724 17:07:18.782677 18690 net.cpp:150] Setting up Block4_relu5
I0724 17:07:18.782692 18690 net.cpp:157] Top shape: 5 72 64 64 (1474560)
I0724 17:07:18.782696 18690 net.cpp:165] Memory required for data: 4659445800
I0724 17:07:18.782701 18690 layer_factory.hpp:77] Creating layer Block4_conv5
I0724 17:07:18.782711 18690 net.cpp:106] Creating Layer Block4_conv5
I0724 17:07:18.782716 18690 net.cpp:454] Block4_conv5 <- Block4_bn5
I0724 17:07:18.782724 18690 net.cpp:411] Block4_conv5 -> Block4_conv5
I0724 17:07:18.788430 18690 net.cpp:150] Setting up Block4_conv5
I0724 17:07:18.788451 18690 net.cpp:157] Top shape: 5 18 64 64 (368640)
I0724 17:07:18.788455 18690 net.cpp:165] Memory required for data: 4660920360
I0724 17:07:18.788463 18690 layer_factory.hpp:77] Creating layer Block4_cat4
I0724 17:07:18.788475 18690 net.cpp:106] Creating Layer Block4_cat4
I0724 17:07:18.788480 18690 net.cpp:454] Block4_cat4 <- Block4_conv1_Block4_conv1_0_split_4
I0724 17:07:18.788486 18690 net.cpp:454] Block4_cat4 <- Block4_conv2_Block4_conv2_0_split_3
I0724 17:07:18.788489 18690 net.cpp:454] Block4_cat4 <- Block4_conv3_Block4_conv3_0_split_2
I0724 17:07:18.788493 18690 net.cpp:454] Block4_cat4 <- Block4_conv4_Block4_conv4_0_split_1
I0724 17:07:18.788497 18690 net.cpp:454] Block4_cat4 <- Block4_conv5
I0724 17:07:18.788502 18690 net.cpp:411] Block4_cat4 -> Block4_cat4
I0724 17:07:18.788539 18690 net.cpp:150] Setting up Block4_cat4
I0724 17:07:18.788549 18690 net.cpp:157] Top shape: 5 90 64 64 (1843200)
I0724 17:07:18.788553 18690 net.cpp:165] Memory required for data: 4668293160
I0724 17:07:18.788566 18690 layer_factory.hpp:77] Creating layer transition4_bn1
I0724 17:07:18.788575 18690 net.cpp:106] Creating Layer transition4_bn1
I0724 17:07:18.788581 18690 net.cpp:454] transition4_bn1 <- Block4_cat4
I0724 17:07:18.788590 18690 net.cpp:411] transition4_bn1 -> transition4_bn1
I0724 17:07:18.788872 18690 net.cpp:150] Setting up transition4_bn1
I0724 17:07:18.788882 18690 net.cpp:157] Top shape: 5 90 64 64 (1843200)
I0724 17:07:18.788884 18690 net.cpp:165] Memory required for data: 4675665960
I0724 17:07:18.788893 18690 layer_factory.hpp:77] Creating layer transition4_conv1
I0724 17:07:18.788904 18690 net.cpp:106] Creating Layer transition4_conv1
I0724 17:07:18.788908 18690 net.cpp:454] transition4_conv1 <- transition4_bn1
I0724 17:07:18.788918 18690 net.cpp:411] transition4_conv1 -> transition4_conv1
I0724 17:07:18.792630 18690 net.cpp:150] Setting up transition4_conv1
I0724 17:07:18.792646 18690 net.cpp:157] Top shape: 5 128 64 64 (2621440)
I0724 17:07:18.792650 18690 net.cpp:165] Memory required for data: 4686151720
I0724 17:07:18.792670 18690 layer_factory.hpp:77] Creating layer transition4_average
I0724 17:07:18.792680 18690 net.cpp:106] Creating Layer transition4_average
I0724 17:07:18.792685 18690 net.cpp:454] transition4_average <- transition4_conv1
I0724 17:07:18.792691 18690 net.cpp:411] transition4_average -> transition4_average
I0724 17:07:18.792771 18690 net.cpp:150] Setting up transition4_average
I0724 17:07:18.792783 18690 net.cpp:157] Top shape: 5 128 32 32 (655360)
I0724 17:07:18.792786 18690 net.cpp:165] Memory required for data: 4688773160
I0724 17:07:18.792799 18690 layer_factory.hpp:77] Creating layer Block5_bn1
I0724 17:07:18.792806 18690 net.cpp:106] Creating Layer Block5_bn1
I0724 17:07:18.792810 18690 net.cpp:454] Block5_bn1 <- transition4_average
I0724 17:07:18.792816 18690 net.cpp:411] Block5_bn1 -> Block5_bn1
I0724 17:07:18.793078 18690 net.cpp:150] Setting up Block5_bn1
I0724 17:07:18.793087 18690 net.cpp:157] Top shape: 5 128 32 32 (655360)
I0724 17:07:18.793092 18690 net.cpp:165] Memory required for data: 4691394600
I0724 17:07:18.793099 18690 layer_factory.hpp:77] Creating layer Block5_relu1
I0724 17:07:18.793104 18690 net.cpp:106] Creating Layer Block5_relu1
I0724 17:07:18.793108 18690 net.cpp:454] Block5_relu1 <- Block5_bn1
I0724 17:07:18.793113 18690 net.cpp:397] Block5_relu1 -> Block5_bn1 (in-place)
I0724 17:07:18.793576 18690 net.cpp:150] Setting up Block5_relu1
I0724 17:07:18.793591 18690 net.cpp:157] Top shape: 5 128 32 32 (655360)
I0724 17:07:18.793594 18690 net.cpp:165] Memory required for data: 4694016040
I0724 17:07:18.793598 18690 layer_factory.hpp:77] Creating layer Block5_conv1
I0724 17:07:18.793606 18690 net.cpp:106] Creating Layer Block5_conv1
I0724 17:07:18.793611 18690 net.cpp:454] Block5_conv1 <- Block5_bn1
I0724 17:07:18.793618 18690 net.cpp:411] Block5_conv1 -> Block5_conv1
I0724 17:07:18.797941 18690 net.cpp:150] Setting up Block5_conv1
I0724 17:07:18.797960 18690 net.cpp:157] Top shape: 5 128 32 32 (655360)
I0724 17:07:18.797965 18690 net.cpp:165] Memory required for data: 4696637480
I0724 17:07:18.797972 18690 layer_factory.hpp:77] Creating layer Block5_conv1_Block5_conv1_0_split
I0724 17:07:18.797986 18690 net.cpp:106] Creating Layer Block5_conv1_Block5_conv1_0_split
I0724 17:07:18.797991 18690 net.cpp:454] Block5_conv1_Block5_conv1_0_split <- Block5_conv1
I0724 17:07:18.797999 18690 net.cpp:411] Block5_conv1_Block5_conv1_0_split -> Block5_conv1_Block5_conv1_0_split_0
I0724 17:07:18.798007 18690 net.cpp:411] Block5_conv1_Block5_conv1_0_split -> Block5_conv1_Block5_conv1_0_split_1
I0724 17:07:18.798014 18690 net.cpp:411] Block5_conv1_Block5_conv1_0_split -> Block5_conv1_Block5_conv1_0_split_2
I0724 17:07:18.798024 18690 net.cpp:411] Block5_conv1_Block5_conv1_0_split -> Block5_conv1_Block5_conv1_0_split_3
I0724 17:07:18.798030 18690 net.cpp:411] Block5_conv1_Block5_conv1_0_split -> Block5_conv1_Block5_conv1_0_split_4
I0724 17:07:18.798126 18690 net.cpp:150] Setting up Block5_conv1_Block5_conv1_0_split
I0724 17:07:18.798136 18690 net.cpp:157] Top shape: 5 128 32 32 (655360)
I0724 17:07:18.798141 18690 net.cpp:157] Top shape: 5 128 32 32 (655360)
I0724 17:07:18.798146 18690 net.cpp:157] Top shape: 5 128 32 32 (655360)
I0724 17:07:18.798149 18690 net.cpp:157] Top shape: 5 128 32 32 (655360)
I0724 17:07:18.798153 18690 net.cpp:157] Top shape: 5 128 32 32 (655360)
I0724 17:07:18.798156 18690 net.cpp:165] Memory required for data: 4709744680
I0724 17:07:18.798161 18690 layer_factory.hpp:77] Creating layer Block5_bn2
I0724 17:07:18.798169 18690 net.cpp:106] Creating Layer Block5_bn2
I0724 17:07:18.798173 18690 net.cpp:454] Block5_bn2 <- Block5_conv1_Block5_conv1_0_split_0
I0724 17:07:18.798182 18690 net.cpp:411] Block5_bn2 -> Block5_bn2
I0724 17:07:18.798420 18690 net.cpp:150] Setting up Block5_bn2
I0724 17:07:18.798429 18690 net.cpp:157] Top shape: 5 128 32 32 (655360)
I0724 17:07:18.798434 18690 net.cpp:165] Memory required for data: 4712366120
I0724 17:07:18.798440 18690 layer_factory.hpp:77] Creating layer Block5_relu2
I0724 17:07:18.798446 18690 net.cpp:106] Creating Layer Block5_relu2
I0724 17:07:18.798460 18690 net.cpp:454] Block5_relu2 <- Block5_bn2
I0724 17:07:18.798470 18690 net.cpp:397] Block5_relu2 -> Block5_bn2 (in-place)
I0724 17:07:18.798933 18690 net.cpp:150] Setting up Block5_relu2
I0724 17:07:18.798944 18690 net.cpp:157] Top shape: 5 128 32 32 (655360)
I0724 17:07:18.798949 18690 net.cpp:165] Memory required for data: 4714987560
I0724 17:07:18.798959 18690 layer_factory.hpp:77] Creating layer Block5_conv2
I0724 17:07:18.798969 18690 net.cpp:106] Creating Layer Block5_conv2
I0724 17:07:18.798972 18690 net.cpp:454] Block5_conv2 <- Block5_bn2
I0724 17:07:18.798980 18690 net.cpp:411] Block5_conv2 -> Block5_conv2
I0724 17:07:18.801096 18690 net.cpp:150] Setting up Block5_conv2
I0724 17:07:18.801112 18690 net.cpp:157] Top shape: 5 24 32 32 (122880)
I0724 17:07:18.801116 18690 net.cpp:165] Memory required for data: 4715479080
I0724 17:07:18.801123 18690 layer_factory.hpp:77] Creating layer Block5_conv2_Block5_conv2_0_split
I0724 17:07:18.801131 18690 net.cpp:106] Creating Layer Block5_conv2_Block5_conv2_0_split
I0724 17:07:18.801136 18690 net.cpp:454] Block5_conv2_Block5_conv2_0_split <- Block5_conv2
I0724 17:07:18.801144 18690 net.cpp:411] Block5_conv2_Block5_conv2_0_split -> Block5_conv2_Block5_conv2_0_split_0
I0724 17:07:18.801153 18690 net.cpp:411] Block5_conv2_Block5_conv2_0_split -> Block5_conv2_Block5_conv2_0_split_1
I0724 17:07:18.801162 18690 net.cpp:411] Block5_conv2_Block5_conv2_0_split -> Block5_conv2_Block5_conv2_0_split_2
I0724 17:07:18.801167 18690 net.cpp:411] Block5_conv2_Block5_conv2_0_split -> Block5_conv2_Block5_conv2_0_split_3
I0724 17:07:18.801245 18690 net.cpp:150] Setting up Block5_conv2_Block5_conv2_0_split
I0724 17:07:18.801255 18690 net.cpp:157] Top shape: 5 24 32 32 (122880)
I0724 17:07:18.801260 18690 net.cpp:157] Top shape: 5 24 32 32 (122880)
I0724 17:07:18.801265 18690 net.cpp:157] Top shape: 5 24 32 32 (122880)
I0724 17:07:18.801270 18690 net.cpp:157] Top shape: 5 24 32 32 (122880)
I0724 17:07:18.801271 18690 net.cpp:165] Memory required for data: 4717445160
I0724 17:07:18.801275 18690 layer_factory.hpp:77] Creating layer Block5_cat1
I0724 17:07:18.801283 18690 net.cpp:106] Creating Layer Block5_cat1
I0724 17:07:18.801287 18690 net.cpp:454] Block5_cat1 <- Block5_conv1_Block5_conv1_0_split_1
I0724 17:07:18.801292 18690 net.cpp:454] Block5_cat1 <- Block5_conv2_Block5_conv2_0_split_0
I0724 17:07:18.801297 18690 net.cpp:411] Block5_cat1 -> Block5_cat1
I0724 17:07:18.801327 18690 net.cpp:150] Setting up Block5_cat1
I0724 17:07:18.801335 18690 net.cpp:157] Top shape: 5 152 32 32 (778240)
I0724 17:07:18.801338 18690 net.cpp:165] Memory required for data: 4720558120
I0724 17:07:18.801348 18690 layer_factory.hpp:77] Creating layer Block5_bn3
I0724 17:07:18.801357 18690 net.cpp:106] Creating Layer Block5_bn3
I0724 17:07:18.801362 18690 net.cpp:454] Block5_bn3 <- Block5_cat1
I0724 17:07:18.801369 18690 net.cpp:411] Block5_bn3 -> Block5_bn3
I0724 17:07:18.801623 18690 net.cpp:150] Setting up Block5_bn3
I0724 17:07:18.801632 18690 net.cpp:157] Top shape: 5 152 32 32 (778240)
I0724 17:07:18.801635 18690 net.cpp:165] Memory required for data: 4723671080
I0724 17:07:18.801643 18690 layer_factory.hpp:77] Creating layer Block5_relu3
I0724 17:07:18.801650 18690 net.cpp:106] Creating Layer Block5_relu3
I0724 17:07:18.801653 18690 net.cpp:454] Block5_relu3 <- Block5_bn3
I0724 17:07:18.801659 18690 net.cpp:397] Block5_relu3 -> Block5_bn3 (in-place)
I0724 17:07:18.802330 18690 net.cpp:150] Setting up Block5_relu3
I0724 17:07:18.802345 18690 net.cpp:157] Top shape: 5 152 32 32 (778240)
I0724 17:07:18.802348 18690 net.cpp:165] Memory required for data: 4726784040
I0724 17:07:18.802352 18690 layer_factory.hpp:77] Creating layer Block5_conv3
I0724 17:07:18.802362 18690 net.cpp:106] Creating Layer Block5_conv3
I0724 17:07:18.802368 18690 net.cpp:454] Block5_conv3 <- Block5_bn3
I0724 17:07:18.802376 18690 net.cpp:411] Block5_conv3 -> Block5_conv3
I0724 17:07:18.804551 18690 net.cpp:150] Setting up Block5_conv3
I0724 17:07:18.804567 18690 net.cpp:157] Top shape: 5 24 32 32 (122880)
I0724 17:07:18.804582 18690 net.cpp:165] Memory required for data: 4727275560
I0724 17:07:18.804590 18690 layer_factory.hpp:77] Creating layer Block5_conv3_Block5_conv3_0_split
I0724 17:07:18.804597 18690 net.cpp:106] Creating Layer Block5_conv3_Block5_conv3_0_split
I0724 17:07:18.804602 18690 net.cpp:454] Block5_conv3_Block5_conv3_0_split <- Block5_conv3
I0724 17:07:18.804610 18690 net.cpp:411] Block5_conv3_Block5_conv3_0_split -> Block5_conv3_Block5_conv3_0_split_0
I0724 17:07:18.804618 18690 net.cpp:411] Block5_conv3_Block5_conv3_0_split -> Block5_conv3_Block5_conv3_0_split_1
I0724 17:07:18.804625 18690 net.cpp:411] Block5_conv3_Block5_conv3_0_split -> Block5_conv3_Block5_conv3_0_split_2
I0724 17:07:18.804690 18690 net.cpp:150] Setting up Block5_conv3_Block5_conv3_0_split
I0724 17:07:18.804700 18690 net.cpp:157] Top shape: 5 24 32 32 (122880)
I0724 17:07:18.804704 18690 net.cpp:157] Top shape: 5 24 32 32 (122880)
I0724 17:07:18.804708 18690 net.cpp:157] Top shape: 5 24 32 32 (122880)
I0724 17:07:18.804711 18690 net.cpp:165] Memory required for data: 4728750120
I0724 17:07:18.804715 18690 layer_factory.hpp:77] Creating layer Block5_cat2
I0724 17:07:18.804721 18690 net.cpp:106] Creating Layer Block5_cat2
I0724 17:07:18.804728 18690 net.cpp:454] Block5_cat2 <- Block5_conv1_Block5_conv1_0_split_2
I0724 17:07:18.804733 18690 net.cpp:454] Block5_cat2 <- Block5_conv2_Block5_conv2_0_split_1
I0724 17:07:18.804738 18690 net.cpp:454] Block5_cat2 <- Block5_conv3_Block5_conv3_0_split_0
I0724 17:07:18.804742 18690 net.cpp:411] Block5_cat2 -> Block5_cat2
I0724 17:07:18.804774 18690 net.cpp:150] Setting up Block5_cat2
I0724 17:07:18.804783 18690 net.cpp:157] Top shape: 5 176 32 32 (901120)
I0724 17:07:18.804786 18690 net.cpp:165] Memory required for data: 4732354600
I0724 17:07:18.804790 18690 layer_factory.hpp:77] Creating layer Block5_bn4
I0724 17:07:18.804800 18690 net.cpp:106] Creating Layer Block5_bn4
I0724 17:07:18.804806 18690 net.cpp:454] Block5_bn4 <- Block5_cat2
I0724 17:07:18.804812 18690 net.cpp:411] Block5_bn4 -> Block5_bn4
I0724 17:07:18.805078 18690 net.cpp:150] Setting up Block5_bn4
I0724 17:07:18.805086 18690 net.cpp:157] Top shape: 5 176 32 32 (901120)
I0724 17:07:18.805089 18690 net.cpp:165] Memory required for data: 4735959080
I0724 17:07:18.805109 18690 layer_factory.hpp:77] Creating layer Block5_relu4
I0724 17:07:18.805115 18690 net.cpp:106] Creating Layer Block5_relu4
I0724 17:07:18.805119 18690 net.cpp:454] Block5_relu4 <- Block5_bn4
I0724 17:07:18.805124 18690 net.cpp:397] Block5_relu4 -> Block5_bn4 (in-place)
I0724 17:07:18.805586 18690 net.cpp:150] Setting up Block5_relu4
I0724 17:07:18.805598 18690 net.cpp:157] Top shape: 5 176 32 32 (901120)
I0724 17:07:18.805603 18690 net.cpp:165] Memory required for data: 4739563560
I0724 17:07:18.805606 18690 layer_factory.hpp:77] Creating layer Block5_conv4
I0724 17:07:18.805616 18690 net.cpp:106] Creating Layer Block5_conv4
I0724 17:07:18.805621 18690 net.cpp:454] Block5_conv4 <- Block5_bn4
I0724 17:07:18.805629 18690 net.cpp:411] Block5_conv4 -> Block5_conv4
I0724 17:07:18.808017 18690 net.cpp:150] Setting up Block5_conv4
I0724 17:07:18.808032 18690 net.cpp:157] Top shape: 5 24 32 32 (122880)
I0724 17:07:18.808037 18690 net.cpp:165] Memory required for data: 4740055080
I0724 17:07:18.808044 18690 layer_factory.hpp:77] Creating layer Block5_conv4_Block5_conv4_0_split
I0724 17:07:18.808053 18690 net.cpp:106] Creating Layer Block5_conv4_Block5_conv4_0_split
I0724 17:07:18.808058 18690 net.cpp:454] Block5_conv4_Block5_conv4_0_split <- Block5_conv4
I0724 17:07:18.808064 18690 net.cpp:411] Block5_conv4_Block5_conv4_0_split -> Block5_conv4_Block5_conv4_0_split_0
I0724 17:07:18.808073 18690 net.cpp:411] Block5_conv4_Block5_conv4_0_split -> Block5_conv4_Block5_conv4_0_split_1
I0724 17:07:18.808127 18690 net.cpp:150] Setting up Block5_conv4_Block5_conv4_0_split
I0724 17:07:18.808137 18690 net.cpp:157] Top shape: 5 24 32 32 (122880)
I0724 17:07:18.808141 18690 net.cpp:157] Top shape: 5 24 32 32 (122880)
I0724 17:07:18.808145 18690 net.cpp:165] Memory required for data: 4741038120
I0724 17:07:18.808158 18690 layer_factory.hpp:77] Creating layer Block5_cat3
I0724 17:07:18.808174 18690 net.cpp:106] Creating Layer Block5_cat3
I0724 17:07:18.808181 18690 net.cpp:454] Block5_cat3 <- Block5_conv1_Block5_conv1_0_split_3
I0724 17:07:18.808185 18690 net.cpp:454] Block5_cat3 <- Block5_conv2_Block5_conv2_0_split_2
I0724 17:07:18.808192 18690 net.cpp:454] Block5_cat3 <- Block5_conv3_Block5_conv3_0_split_1
I0724 17:07:18.808195 18690 net.cpp:454] Block5_cat3 <- Block5_conv4_Block5_conv4_0_split_0
I0724 17:07:18.808200 18690 net.cpp:411] Block5_cat3 -> Block5_cat3
I0724 17:07:18.808248 18690 net.cpp:150] Setting up Block5_cat3
I0724 17:07:18.808256 18690 net.cpp:157] Top shape: 5 200 32 32 (1024000)
I0724 17:07:18.808260 18690 net.cpp:165] Memory required for data: 4745134120
I0724 17:07:18.808264 18690 layer_factory.hpp:77] Creating layer Block5_bn5
I0724 17:07:18.808272 18690 net.cpp:106] Creating Layer Block5_bn5
I0724 17:07:18.808276 18690 net.cpp:454] Block5_bn5 <- Block5_cat3
I0724 17:07:18.808284 18690 net.cpp:411] Block5_bn5 -> Block5_bn5
I0724 17:07:18.808547 18690 net.cpp:150] Setting up Block5_bn5
I0724 17:07:18.808557 18690 net.cpp:157] Top shape: 5 200 32 32 (1024000)
I0724 17:07:18.808559 18690 net.cpp:165] Memory required for data: 4749230120
I0724 17:07:18.808568 18690 layer_factory.hpp:77] Creating layer Block5_relu5
I0724 17:07:18.808573 18690 net.cpp:106] Creating Layer Block5_relu5
I0724 17:07:18.808576 18690 net.cpp:454] Block5_relu5 <- Block5_bn5
I0724 17:07:18.808583 18690 net.cpp:397] Block5_relu5 -> Block5_bn5 (in-place)
I0724 17:07:18.809037 18690 net.cpp:150] Setting up Block5_relu5
I0724 17:07:18.809051 18690 net.cpp:157] Top shape: 5 200 32 32 (1024000)
I0724 17:07:18.809053 18690 net.cpp:165] Memory required for data: 4753326120
I0724 17:07:18.809056 18690 layer_factory.hpp:77] Creating layer Block5_conv5
I0724 17:07:18.809087 18690 net.cpp:106] Creating Layer Block5_conv5
I0724 17:07:18.809092 18690 net.cpp:454] Block5_conv5 <- Block5_bn5
I0724 17:07:18.809098 18690 net.cpp:411] Block5_conv5 -> Block5_conv5
I0724 17:07:18.811462 18690 net.cpp:150] Setting up Block5_conv5
I0724 17:07:18.811478 18690 net.cpp:157] Top shape: 5 24 32 32 (122880)
I0724 17:07:18.811481 18690 net.cpp:165] Memory required for data: 4753817640
I0724 17:07:18.811496 18690 layer_factory.hpp:77] Creating layer Block5_cat4
I0724 17:07:18.811503 18690 net.cpp:106] Creating Layer Block5_cat4
I0724 17:07:18.811512 18690 net.cpp:454] Block5_cat4 <- Block5_conv1_Block5_conv1_0_split_4
I0724 17:07:18.811517 18690 net.cpp:454] Block5_cat4 <- Block5_conv2_Block5_conv2_0_split_3
I0724 17:07:18.811520 18690 net.cpp:454] Block5_cat4 <- Block5_conv3_Block5_conv3_0_split_2
I0724 17:07:18.811524 18690 net.cpp:454] Block5_cat4 <- Block5_conv4_Block5_conv4_0_split_1
I0724 17:07:18.811528 18690 net.cpp:454] Block5_cat4 <- Block5_conv5
I0724 17:07:18.811533 18690 net.cpp:411] Block5_cat4 -> Block5_cat4
I0724 17:07:18.811571 18690 net.cpp:150] Setting up Block5_cat4
I0724 17:07:18.811581 18690 net.cpp:157] Top shape: 5 224 32 32 (1146880)
I0724 17:07:18.811584 18690 net.cpp:165] Memory required for data: 4758405160
I0724 17:07:18.811588 18690 layer_factory.hpp:77] Creating layer transition5_bn1
I0724 17:07:18.811594 18690 net.cpp:106] Creating Layer transition5_bn1
I0724 17:07:18.811600 18690 net.cpp:454] transition5_bn1 <- Block5_cat4
I0724 17:07:18.811606 18690 net.cpp:411] transition5_bn1 -> transition5_bn1
I0724 17:07:18.811892 18690 net.cpp:150] Setting up transition5_bn1
I0724 17:07:18.811911 18690 net.cpp:157] Top shape: 5 224 32 32 (1146880)
I0724 17:07:18.811915 18690 net.cpp:165] Memory required for data: 4762992680
I0724 17:07:18.811923 18690 layer_factory.hpp:77] Creating layer transition5_conv1
I0724 17:07:18.811939 18690 net.cpp:106] Creating Layer transition5_conv1
I0724 17:07:18.811942 18690 net.cpp:454] transition5_conv1 <- transition5_bn1
I0724 17:07:18.811949 18690 net.cpp:411] transition5_conv1 -> transition5_conv1
I0724 17:07:18.814038 18690 net.cpp:150] Setting up transition5_conv1
I0724 17:07:18.814067 18690 net.cpp:157] Top shape: 5 128 32 32 (655360)
I0724 17:07:18.814072 18690 net.cpp:165] Memory required for data: 4765614120
I0724 17:07:18.814080 18690 layer_factory.hpp:77] Creating layer transition5_average
I0724 17:07:18.814088 18690 net.cpp:106] Creating Layer transition5_average
I0724 17:07:18.814092 18690 net.cpp:454] transition5_average <- transition5_conv1
I0724 17:07:18.814100 18690 net.cpp:411] transition5_average -> transition5_average
I0724 17:07:18.814154 18690 net.cpp:150] Setting up transition5_average
I0724 17:07:18.814163 18690 net.cpp:157] Top shape: 5 128 16 16 (163840)
I0724 17:07:18.814167 18690 net.cpp:165] Memory required for data: 4766269480
I0724 17:07:18.814170 18690 layer_factory.hpp:77] Creating layer Pconv
I0724 17:07:18.814182 18690 net.cpp:106] Creating Layer Pconv
I0724 17:07:18.814185 18690 net.cpp:454] Pconv <- transition5_average
I0724 17:07:18.814191 18690 net.cpp:411] Pconv -> Pconv
I0724 17:07:18.818557 18690 net.cpp:150] Setting up Pconv
I0724 17:07:18.818574 18690 net.cpp:157] Top shape: 5 256 16 16 (327680)
I0724 17:07:18.818579 18690 net.cpp:165] Memory required for data: 4767580200
I0724 17:07:18.818588 18690 layer_factory.hpp:77] Creating layer pool
I0724 17:07:18.818595 18690 net.cpp:106] Creating Layer pool
I0724 17:07:18.818599 18690 net.cpp:454] pool <- Pconv
I0724 17:07:18.818606 18690 net.cpp:411] pool -> pool
I0724 17:07:18.818657 18690 net.cpp:150] Setting up pool
I0724 17:07:18.818667 18690 net.cpp:157] Top shape: 5 256 8 8 (81920)
I0724 17:07:18.818670 18690 net.cpp:165] Memory required for data: 4767907880
I0724 17:07:18.818681 18690 layer_factory.hpp:77] Creating layer Tconv
I0724 17:07:18.818691 18690 net.cpp:106] Creating Layer Tconv
I0724 17:07:18.818694 18690 net.cpp:454] Tconv <- pool
I0724 17:07:18.818702 18690 net.cpp:411] Tconv -> Tconv
I0724 17:07:18.824002 18690 net.cpp:150] Setting up Tconv
I0724 17:07:18.824018 18690 net.cpp:157] Top shape: 5 128 8 8 (40960)
I0724 17:07:18.824021 18690 net.cpp:165] Memory required for data: 4768071720
I0724 17:07:18.824028 18690 layer_factory.hpp:77] Creating layer upsampling1
I0724 17:07:18.824040 18690 net.cpp:106] Creating Layer upsampling1
I0724 17:07:18.824045 18690 net.cpp:454] upsampling1 <- Tconv
I0724 17:07:18.824053 18690 net.cpp:411] upsampling1 -> upsampling1
I0724 17:07:18.827342 18690 net.cpp:150] Setting up upsampling1
I0724 17:07:18.827356 18690 net.cpp:157] Top shape: 5 128 32 32 (655360)
I0724 17:07:18.827359 18690 net.cpp:165] Memory required for data: 4770693160
I0724 17:07:18.827366 18690 layer_factory.hpp:77] Creating layer upsampling2
I0724 17:07:18.827373 18690 net.cpp:106] Creating Layer upsampling2
I0724 17:07:18.827378 18690 net.cpp:454] upsampling2 <- upsampling1
I0724 17:07:18.827385 18690 net.cpp:411] upsampling2 -> upsampling2
I0724 17:07:18.827970 18690 net.cpp:150] Setting up upsampling2
I0724 17:07:18.827980 18690 net.cpp:157] Top shape: 5 16 128 128 (1310720)
I0724 17:07:18.827985 18690 net.cpp:165] Memory required for data: 4775936040
I0724 17:07:18.827996 18690 layer_factory.hpp:77] Creating layer upsampling3
I0724 17:07:18.828004 18690 net.cpp:106] Creating Layer upsampling3
I0724 17:07:18.828008 18690 net.cpp:454] upsampling3 <- upsampling2
I0724 17:07:18.828016 18690 net.cpp:411] upsampling3 -> upsampling3
I0724 17:07:18.828447 18690 net.cpp:150] Setting up upsampling3
I0724 17:07:18.828459 18690 net.cpp:157] Top shape: 5 16 512 512 (20971520)
I0724 17:07:18.828461 18690 net.cpp:165] Memory required for data: 4859822120
I0724 17:07:18.828467 18690 layer_factory.hpp:77] Creating layer conv_cls
I0724 17:07:18.828477 18690 net.cpp:106] Creating Layer conv_cls
I0724 17:07:18.828481 18690 net.cpp:454] conv_cls <- upsampling3
I0724 17:07:18.828488 18690 net.cpp:411] conv_cls -> conv_cls
I0724 17:07:18.831681 18690 net.cpp:150] Setting up conv_cls
I0724 17:07:18.831698 18690 net.cpp:157] Top shape: 5 2 512 512 (2621440)
I0724 17:07:18.831701 18690 net.cpp:165] Memory required for data: 4870307880
I0724 17:07:18.831709 18690 layer_factory.hpp:77] Creating layer loss
I0724 17:07:18.831732 18690 net.cpp:106] Creating Layer loss
I0724 17:07:18.831737 18690 net.cpp:454] loss <- conv_cls
I0724 17:07:18.831743 18690 net.cpp:454] loss <- label
I0724 17:07:18.831753 18690 net.cpp:411] loss -> loss
I0724 17:07:18.831768 18690 layer_factory.hpp:77] Creating layer loss
…
